Assets/My Behavior-500001.onnx (onnx, 86816 bytes, 9 tensors)

action_model._discrete_distribution.branches.0.bias f4 [16]
00000000: fed1 04bd af85 8abb 45d8 853c 3f32 12bc
00000010: 7359 8cbb 5d87 82bc ab66 083d 37b1 76bb
00000020: be08 25bd faf9 d93c a883 013d fdc0 41bc
00000030: f424 cabc c407 a9bc edbe 1a3d 94e6 2e3c
-0.032426827 -0.004227362 0.016338477 -0.008923112 -0.004283124 -0.015933687 0.033301037 -0.003764225
-0.04029154 0.026608456 0.031619698 -0.011825797 -0.024675824 -0.020633586 0.037779737 0.010675091

action_model._discrete_distribution.branches.0.weight f4 [16, 128]
00000000: ba61 17bd 775c 423d 2b6b bcbd 988b 70bc
00000010: d616 c0bd 31e4 b93b f2a7 edbc 9f8c 673d
00000020: 68b6 8c3d f1dd 3c3d d553 f13c a766 653d
00000030: 3bc9 1e3d 6a84 2dbd 6850 523d 50ec 4c3d
00000040: b49c d33c 4af4 27bc cb1b 85bd d421 513d
00000050: fa0c eebb d77a 4b3d e502 833d 2021 59bc
00000060: c264 e7bc 4448 543d feaa 30bd 6c06 82bd
00000070: 9a20 9b3c 20ca 8f3d 561c abbc 4007 5abd
00000080: d535 8e3d 81de 903c a795 d1bc 6dd3 853d
00000090: 6b7b bc3c ac1e 37bd 7989 4a3d 6ef9 fabc
000000a0: 2195 3d3c f769 4e3d ca3b 023d fcc0 2c3d
000000b0: a99d 4d3d c68e 3d3d 5092 b33d ec1e 0d3d
000000c0: 3f71 58bd de51 873d 1950 4f3d c301 df3c
000000d0: c24f 2e3c 5b0e 703d 0134 473d ca24 083d
000000e0: dd40 67bd 23e0 a63d 18df 833d 59b9 2ebd
000000f0: ff16 ea3c 2c4c 203d 85c2 6e3d c4ff 193d
00000100: 5cf4 c53b dc8f 32bc f411 423d 187e 693d
00000110: 18e8 973d c7a8 b63d cad0 4b3d ca59 a23d
00000120: 2978 10bc ce0b 16bd 8a61 9a3d b3d7 143d
00000130: 42dc 2d3d 818e 67bd 5420 d13d 9cd5 853d
00000140: 7651 293d 8ab7 5c3d d82c 9abd 34f0 6e3c
00000150: b39c 4a3d 8ff3 1c3d 98ca fe3c 2018 4c3d
00000160: b41e 463d ac07 cf3d 9eec fbbc 201f 34bd
00000170: 9d21 d9bc 9b58 bebc 305f 093d 9901 5db8
00000180: 384c 653d 5f0b 283d 0a78 5a3d a6d3 163d
00000190: 921b d0bc 24b2 163d a06e 8a3d abe9 463d
000001a0: 4805 d83d 1415 3e3d 6fb7 9fbd 5cec 773d
000001b0: c10f 76bc 60c2 873d 2b97 203d a2ea 1a3d
000001c0: c8cc 413d fcfa 0c3d 15d6 2c3d 99de e63c
000001d0: 3b53 883d b658 49bc 44f1 55bc 863c 633d
000001e0: cffb 933d e06c 823c ec5d 31bd 8f61 30bc
000001f0: 1b2c 373d 0025 63bd 74ff 3a3d a66c c1bb
00000200: beb9 89bd 7cf5 6f3b 858c b1bd 5e81 e4bc
00000210: 02f9 44bd d0d2 bd3c 98f7 783c 7501 d2ba
00000220: 32fb 69bd 0dc7 613c c2b2 9c3d f139 feba
00000230: dafb b1ba 5ed8 3bbd e5f9 8abb dbf7 00bc
00000240: 2522 b03d a98e 0ebd 838b adbc 0f48 333c
00000250: 10fc 8b3d 6c78 a43c 1ecb 0e3c 583f 503b
00000260: 1ca9 70bb 9ec4 3b3d c823 04be a7ef 1b3d
00000270: 934f 3d3d 8563 81bc 28f5 0abc e219 73bd
00000280: 8885 51bb 0358 e73c f0d0 5dbd 5843 9e3b
00000290: a3a3 eb3c 2300 783c 871b 863c d81f 96bd
000002a0: 8386 7dbc 7c81 61bc 6f1b 9a3c 1d5c 69bb
000002b0: 0eca 593b 4ebe 193c 939e 633d 157f 57bc
000002c0: a576 8cbd 920b 4bbc 3618 053d cb38 2d3c
000002d0: d67c 763c 2dc0 00bc a28a 103d 08a3 8e3b
000002e0: 8c01 b23b 0369 7f3c 0a4b 8f3c cbc9 58bd
000002f0: 46ee 84ba c912 b83c 1c52 34bb 8d04 d53c
00000300: 8b53 bc3c c3e8 003d 9b63 833b 8814 853c
00000310: 6718 36bc d7b0 c53c f0de 8c3c 2779 87b8
00000320: 1e3c 1a3d c2b6 dc3d f029 263c 853a c8bb
00000330: b199 dcbc f3fe 37bc 05c5 6abd 919e 8c3d
00000340: 26f2 5f3d 4458 153c 991e 143d 4dd5 7d3d
00000350: bb17 ea3c 1729 f2bb 75b2 a9bc ec28 913c
00000360: 7a61 86bc f80a 2fbd 17ff 95bd 1a45 043d
00000370: f110 2a3c 2762 b93d 035e 9f3b 0a39 4fbd
00000380: 6cdd cdbc 5f93 9ebb e0d5 463c bc1a 1a3d
00000390: c6ff 803d d63d fbbb 4265 95bb aa6b 003d
000003a0: 9667 893d 5b31 a43c d878 aebd 7ffa 8b3c
000003b0: 7e7f 63bd 40af 403c f467 fb3a 8ccc 653d
000003c0: 43a4 cbba 331b 09bd d66f 01bb 9519 a3bd
000003d0: 3649 453c 9b5b 96bb fdba 973d 4116 863c
000003e0: 1448 2fbd 11ba bc39 e42e b23d a32c 78bc
000003f0: 42d7 5a3c 4654 62bd 0ea6 75bc 5e92 7b3b
-0.036958434 0.047451463 -0.09200128 -0.014681719 -0.093793556 0.0056729545 -0.029010747 0.05653059
0.06870729 0.046110097 0.02945892 0.0560061 0.038766127 -0.042362608 0.051346213 0.050030053
0.025831558 -0.010251114 -0.06499442 0.05105765 -0.0072647305 0.049677696 0.063970365 -0.0132525265
-0.028246287 0.05182673 -0.04313182 -0.06348881 0.018936444 0.07020974 -0.020887535 -0.05322957
0.069438614 0.017684223 -0.025584055 0.06534467 0.023008069 -0.044706985 0.04944751 -0.030636515
0.0115712 0.050394025 0.0317953 0.04217623 0.050199185 0.046278737 0.08768141 0.034453318
-0.052842375 0.06607412 0.050613496 0.02722252 0.010639133 0.05860744 0.04863358 0.03323821
-0.056458343 0.081482194 0.06439036 -0.04265723 0.028575419 0.039135143 0.058290977 0.037597433
0.006041093 -0.010898557 0.047380403 0.057005018 0.07417315 0.089189105 0.049759664 0.07927282
-0.008817711 -0.03663235 0.07538135 0.03633852 0.042446382 -0.056532387 0.10211244 0.065348834
0.041337453 0.053885974 -0.075280845 0.014583636 0.049465846 0.038318213 0.031102464 0.049827695
0.048369125 0.10108885 -0.030752476 -0.043974996 -0.026505286 -0.02323561 0.033538043 -5.2691994e-05
0.05598089 0.04102647 0.053337134 0.036822937 -0.025403772 0.036790982 0.06759381 0.048562687
0.10547882 0.04640682 -0.07798659 0.060528144 -0.015018404 0.06628871 0.039206665 0.03782142
0.047314435 0.034419045 0.042196352 0.028182315 0.066565 -0.012289217 -0.0130580105 0.05547764
0.07225763 0.015921056 -0.04330246 -0.010765447 0.044719797 -0.055455208 0.045653775 -0.0059028445
-0.06724881 0.0036614826 -0.0866938 -0.027893718 -0.048089035 0.023171812 0.01519575 -0.0016022163
-0.057124324 0.013780368 0.07651283 -0.001939593 -0.0013579086 -0.04586064 -0.0042412155 -0.007871593
0.086002626 -0.03480402 -0.021184688 0.010942473 0.068351865 0.020076953 0.008715419 0.0031776037
-0.003672189 0.045841806 -0.12904274 0.038070347 0.046218466 -0.015794525 -0.008481301 -0.059350856
-0.003197046 0.02824021 -0.054154336 0.0048298053 0.028764552 0.015136751 0.016370548 -0.073302925
-0.015473965 -0.013763782 0.01881191 -0.0035607882 0.0033232006 0.009383751 0.05557115 -0.013152857
-0.06858567 -0.012392895 0.032493792 0.0105726225 0.015044412 -0.007858318 0.03528846 0.004352931
0.0054323133 0.015589002 0.017491836 -0.05292682 -0.0010141812 0.022469895 -0.0027514761 0.026003147
0.022989055 0.03147198 0.0040096766 0.016245142 -0.011114216 0.024132175 0.017196149 -6.459868e-05
0.03765499 0.10777046 0.010141835 -0.0061104917 -0.026928755 -0.011230218 -0.0573168 0.06866182
0.05467429 0.009115282 0.036161993 0.061970998 0.028575769 -0.007390152 -0.020714978 0.017719708
-0.016403902 -0.04273507 -0.07324045 0.032292463 0.010380016 0.09051924 0.004863502 -0.050591506
-0.025129996 -0.0048393453 0.012135953 0.037623152 0.06298785 -0.0076672835 -0.00455919 0.031352676
0.067092106 0.020043066 -0.08519143 0.01708722 -0.055541508 0.011760533 0.0019180761 0.056103274
-0.0015536625 -0.033473205 -0.0019750497 -0.07963864 0.012041381 -0.004588557 0.07408712 0.016368033
-0.04279335 0.00035996785 0.0870035 -0.015147361 0.0133569855 -0.05525615 -0.014993204 0.0038386802

action_model._discrete_distribution.branches.1.bias f4 [2]
00000000: 38c6 20bd 3ac6 203d
-0.039251536 0.039251544

action_model._discrete_distribution.branches.1.weight f4 [2, 128]
00000000: f84a a4bd 3b55 a93d 271e 99bd 9377 b4bd
00000010: e6c2 dfbd b6ca b4bd 163e b0bd 86a2 ad3d
00000020: 4afa dcbd 6945 a23d 4d17 96bd 5385 903d
00000030: 6f71 9e3d 5fb6 8bbd f55e a53d 8bec a03d
00000040: 7a21 a4bd 7873 b8bd 8203 dcbd 91ea a33d
00000050: 9321 9cbd 42f2 b53d 5b39 753d b0ae d9bd
00000060: 97fa a3bd 5d3d b7bd f543 fabd 6dbc bfbd
00000070: cf1e 9fbd 578d d4bd f8a1 91bd 9165 a8bd
00000080: 5f69 953d 753b b6bd 4d53 acbd b909 4a3d
00000090: a71e b0bd 3738 aebd e46c b63d 6494 b8bd
000000a0: 8024 a3bd d116 cabd 7276 bb3d 1a61 b3bd
000000b0: 8667 ab3d ca53 a73d 5a37 9ebd 5617 b23d
000000c0: 9d01 a5bd 30d4 c2bd 8391 9a3d 2ecf a33d
000000d0: c468 c7bd 50c0 913d da77 ac3d fef1 bb3d
000000e0: 3ff2 b1bd 9ee1 b23d d9b0 873d f53a babd
000000f0: dac9 ab3d c8e1 9c3d 3add a13d 3955 babd
00000100: 38b4 a4bd f998 b3bd 65b9 933d 0d43 b63d
00000110: 3829 ae3d 26e1 cabd 8ee2 983d 568b 9fbd
00000120: e0d1 90bd 3dee 83bd a206 9b3d 67bf bebd
00000130: beb1 acbd 7892 bdbd 5e91 c2bd ca7e c9bd
00000140: b160 7d3d f3b1 ae3d 27b3 99bd 6063 a3bd
00000150: 4928 ac3d a6df 9d3d a0ad 903d 17a2 953d
00000160: 6f24 993d 1098 bdbd 0aa9 9cbd 98f7 cbbd
00000170: a1e4 c9bd e429 87bd ab7c ad3d 780a b7bd
00000180: 6f0a b7bd e2d6 903d 750d a2bd 8200 a4bd
00000190: 50bd 8fbd cc41 a93d a822 8f3d 2cac abbd
000001a0: 4d45 8b3c a697 923d 1f1d a8bd b81b ae3d
000001b0: faf4 bbbd 5f15 b73d 5953 ca3d 0752 c6bd
000001c0: a829 ac3d 91c7 8fbd eebc 863d 1747 b7bd
000001d0: 3439 973d b27d b0bd 181c aebd 92a3 963d
000001e0: 5ac3 d1bd 2549 a5bd 7c4f acbd ef54 99bd
000001f0: 4767 7e3d 2c5d b1bd 881f a4bd aaeb 91bd
00000200: c8aa df3d f692 a4bd 3e21 b63d ad74 a83d
00000210: 0a1c c03d de36 c83d 1097 a03d d061 8dbd
00000220: e6dd ad3d 44f2 94bd c5b9 b33d cbcc acbd
00000230: 176f c4bd 5656 a33d b316 aabd 620b 81bd
00000240: 45da d53d bec0 a33d 2406 aa3d a27b a4bd
00000250: 5fff 973d 7fd6 9ebd dae2 a0bd dc68 c63d
00000260: 2f67 903d 2747 b13d 5554 ba3d 2df6 da3d
00000270: 2f67 aa3d f663 c53d e2d8 be3d 0a88 b43d
00000280: df63 a0bd 9414 af3d eca3 bb3d c390 b1bd
00000290: 1d4f a13d 6561 c23d 2b59 97bd 4cba b63d
000002a0: 6813 c93d 308e bd3d 7f8b 96bd 3fcb ab3d
000002b0: 8f7d 72bd b9fe 9ebd ea32 d23d 5f3c afbd
000002c0: b0da a03d 9138 bb3d 66cf d0bd e6a2 95bd
000002d0: 07b7 c43d 40f0 abbd dabb b1bd cafb 98bd
000002e0: 2287 973d d82c 80bd d18d 9cbd b517 a03d
000002f0: 3792 b2bd d6da a3bd 761f a5bd ec17 c43d
00000300: 9d23 963d ff4d c23d a128 b8bd 718f 9bbd
00000310: b075 9fbd eaf7 ad3d f461 b4bd 6f75 bb3d
00000320: 30c2 9b3d a101 603d 5a32 96bd 14e3 be3d
00000330: ae92 a13d 0fea de3d d7aa a83d ef1e d33d
00000340: 0993 9abd f4c2 a2bd 1bce a03d 1235 9b3d
00000350: 5f31 98bd cc31 b6bd 76a7 b8bd 3d29 98bd
00000360: 82ee 80bd 26be c63d d9c6 9a3d 1e80 a53d
00000370: 1661 c13d 3df9 823d f681 adbd 9ef7 b83d
00000380: 7be2 833d 792b 99bd 64c3 ad3d 749f 913d
00000390: 319c 8b3d a18e a6bd 006d a6bd 871b ae3d
000003a0: d44c 8bbc 052f 9bbd 4fd7 a03d 36b0 a5bd
000003b0: fb6f b83d 129a 8cbd 497c 97bd 7e5c ab3d
000003c0: b827 a1bd e3cd c33d 7335 98bd 57cd c03d
000003d0: b769 89bd 3103 b63d aebd a93d 9d64 b5bd
000003e0: 3fe2 c43d 055c 943d a5b9 ab3d 5f68 af3d
000003f0: 20b1 96bd e764 a33d 8457 923d 5ae7 a33d
-0.08022112 0.082682095 -0.07476454 -0.088118695 -0.10925846 -0.088277265 -0.08605592 0.084782645
-0.10789926 0.07923395 -0.07328663 0.070566796 0.077364795 -0.06821894 0.08074752 0.07857617
-0.08014198 -0.09006399 -0.107428566 0.08003724 -0.07623591 0.08884098 0.05986915 -0.10629022
-0.080067806 -0.08947251 -0.12219993 -0.09362111 -0.07769548 -0.10378521 -0.07110971 -0.08222497
0.072954886 -0.08898059 -0.08414326 0.04932568 -0.085995965 -0.08506816 0.08907488 -0.09012678
-0.07965946 -0.09867633 0.09153451 -0.08758755 0.08369355 0.08170278 -0.07725401 0.08695857
-0.08056948 -0.09513128 0.075472854 0.07998501 -0.09736779 0.07116759 0.08421297 0.09177016
-0.08688783 0.08734439 0.06625528 -0.090932764 0.083881095 0.07660252 0.07903524 -0.09098286
-0.080421865 -0.087694116 0.072130956 0.08899508 0.085039556 -0.09906225 0.07465087 -0.07790248
-0.070712805 -0.06441925 0.075696245 -0.09313851 -0.08432339 -0.09256452 -0.09500383 -0.09838636
0.06185979 0.08530035 -0.07504874 -0.07977939 0.08406121 0.07708673 0.07064366 0.07306307
0.07477652 -0.09257519 -0.07649429 -0.09959334 -0.09858061 -0.06599787 0.08471044 -0.08937544
-0.08937537 0.07072236 -0.07912723 -0.08007909 -0.0701853 0.08264503 0.06989032 -0.083824486
0.017000819 0.07157831 -0.082086794 0.08501381 -0.09177585 0.08939623 0.098791786 -0.09683614
0.08406383 -0.07020486 0.06579004 -0.08949106 0.073839575 -0.086177245 -0.08501452 0.07355417
-0.102423385 -0.08070592 -0.08413598 -0.07486903 0.06211021 -0.08660349 -0.080138266 -0.071250275
0.10921246 -0.08035843 0.08893059 0.08225379 0.09380348 0.0977609 0.07841313 -0.06903422
0.084895894 -0.07272771 0.08775667 -0.08437499 -0.09591501 0.07975452 -0.08305111 -0.06300999
0.10442022 0.07995747 0.083019525 -0.080313936 0.07421755 -0.07755756 -0.078557685 0.09687969
0.07050931 0.08656149 0.09098116 0.106914856 0.08320462 0.09638207 0.09318711 0.0881501
-0.07831549 0.08548847 0.09162125 -0.08670189 0.07876418 0.09491233 -0.07390054 0.08922252
0.098181546 0.09255636 -0.073508255 0.083883755 -0.059201773 -0.07763428 0.10263617 -0.08556437
0.07854211 0.091416486 -0.10195808 -0.07306461 0.09605222 -0.083954334 -0.08678408 -0.074699
0.073988214 -0.06258553 -0.07644237 0.07817022 -0.087192945 -0.08000724 -0.08062641 0.09574875
0.073310114 0.09487533 -0.08992124 -0.07595719 -0.07786119 0.084945515 -0.088077456 0.09153258
0.07605398 0.054689053 -0.073338225 0.093206555 0.07889305 0.10884487 0.0823571 0.103086345
-0.07547576 -0.079473406 0.078518115 0.07578482 -0.07431292 -0.08896217 -0.09016316 -0.074297406
-0.06295492 0.09704237 0.075574584 0.08081077 0.09442346 0.06395195 -0.08472054 0.09031604
0.06439682 -0.07478995 0.084845334 0.071104914 0.068169005 -0.08132673 -0.08126259 0.08501344
-0.017004408 -0.07577328 0.07853567 -0.0809025 0.090057336 -0.06865324 -0.073967524 0.08367251
-0.07868904 0.09560754 -0.0743207 0.094141655 -0.06709617 0.088873275 0.08288132 -0.08857081
0.096134655 0.07244114 0.08385018 0.08564829 -0.07358003 0.0797823 0.071455985 0.08003111

discrete_action_output_shape f4 [1, 2]
00000000: 0000 8041 0000 0040
16.0 2.0

network_body._body_endoder.seq_layers.0.bias f4 [128]
00000000: e08d cbbd 49d8 f63d 4d6d fd3d 642e f03d
00000010: d408 143e ce59 b7bd 4097 c7bd f685 c1bd
00000020: 3a93 053e 8736 dcbd bf07 d7bd 679e 023e
00000030: 8f19 d7bd a8b5 013e b271 f33d 1fe9 163e
00000040: 6294 db3d 211a cbbd 9bb3 a1bd dfca 1b3e
00000050: c52c e43d 2980 9d3c 6528 c0bd ad86 db3d
00000060: e7a2 023e 0743 e43d e005 d1bd d684 49bd
00000070: ced5 293e 44a7 043e 726c e53d d9bf 053e
00000080: d7e3 f33d 100b db3d 03ff cbbd d433 dd3d
00000090: dfe8 c1bd 2f56 063e 2d0d ed3d 8bd4 d73d
000000a0: df46 1a3e 35a3 bfbd 6ece fb3d 1965 e73d
000000b0: 6bbf 033e a08b d1bd 38f9 d6bd ca58 df3d
000000c0: 1070 95bd 109a e73d fb0d c4bd 3e98 f63d
000000d0: ddc6 113e 73b3 b1bd 037c df3d 7468 e43d
000000e0: 9162 fa3d 1f20 c7bd 8f58 ea3d 55b3 d6bd
000000f0: 475d 113e 9d66 d83d 39b8 d5bd 9a5b 113e
00000100: 7ab7 df3d fbcf a9bd 827d bebd 4496 c9bd
00000110: 74ac 0e3e 9537 e53d bac9 e63d 4422 e83d
00000120: f3d9 ca3d d929 d2bd a703 e43d 6cf3 ec3d
00000130: dbfe f73d 4c93 89bd 2132 f43d b6dd 9bbd
00000140: b1c1 b3bd 3f8b d7bd 5f9c cebd 5581 c6bd
00000150: 6b25 013e 4bdc 9fbd 9c4c fd3d 92ac e63d
00000160: 765b d53d 14f0 eb3d f006 db3d 1ffd f53d
00000170: d4da 153e 5db3 bebd 67c4 b1bd b7f2 033e
00000180: d2d6 153e 3362 063e d7a0 c7bd 0e09 123e
00000190: 0b83 b8bd e9b0 b9bd a651 f33d 6c92 cdbd
000001a0: ef96 ed3d 20e1 bebd ddd6 003e 0e35 0c3e
000001b0: f1ba f23d 54bc db3d 16c6 7dbd b71b 113e
000001c0: 3e38 f83d 9084 e73d 8458 dfbd 0ece c4bd
000001d0: b85a eabd 84aa 043e 4c03 0d3e 1665 e23d
000001e0: feef 8f3c e549 033e 8e04 053e 9818 c6bd
000001f0: b1e6 f53d fdd5 bfbd f318 023e 5853 1c3e
-0.0993917 0.12052972 0.12374363 0.11727598 0.14456493 -0.08952676 -0.097456455 -0.09449379
0.13044444 -0.10752588 -0.10499524 0.12755738 -0.10502922 0.12666953 0.1188692 0.14737366
0.10721661 -0.09917093 -0.07895585 0.15214108 0.111413516 0.01922615 -0.09382705 0.10719047
0.12757455 0.11145597 -0.10206199 -0.049198948 0.16585466 0.12954432 0.11202325 0.13061465
0.119086914 0.106954694 -0.09960749 0.10800901 -0.09468245 0.13118814 0.11574779 0.10538586
0.15066098 -0.09357301 0.12295233 0.1129858 0.12865989 -0.102317095 -0.104967535 0.10905607
-0.07296765 0.11308682 -0.09572979 0.12040757 0.14236017 -0.08676805 0.10912325 0.11152735
0.12225831 -0.097229235 0.114426725 -0.104834236 0.14195739 0.10566447 -0.10435528 0.141951
0.10923667 -0.08291622 -0.093012825 -0.09843114 0.13932973 0.11192242 0.11268945 0.11334661
0.09904852 -0.10261888 0.11133509 0.115698665 0.12109157 -0.06717548 0.11923624 -0.076106474
-0.08777178 -0.10524606 -0.10088419 -0.09692637 0.1261193 -0.078056894 0.12368128 0.11263384
0.104178354 0.11520401 0.106946826 0.1201117 0.14634258 -0.093115546 -0.08680039 0.12885557
0.14632729 0.13123398 -0.09747475 0.14261267 -0.090093695 -0.09066946 0.118808076 -0.100376934
0.11601054 -0.09320283 0.12581964 0.13692114 0.118520625 0.1072928 -0.061956488 0.14170729
0.12120102 0.11304581 -0.10905555 -0.09609614 -0.114430845 0.12955672 0.13770789 0.11054437
0.017570492 0.12821157 0.12990019 -0.0967266 0.120068915 -0.09366987 0.1270483 0.15266168

network_body._body_endoder.seq_layers.0.weight f4 [128, 16]
00000000: 77d8 59bd 83fa 1abe 9ec9 d6bd 211f 853b
00000010: 2386 3d3e 1ca9 acbe 1d75 cb3e 41f0 223e
00000020: d9a6 a0be d81d ce3e b9db aabe 439a 95bc
00000030: 84e6 913d 90f3 623d a675 d4be 25ef 123e
00000040: 8d51 193f 4fb0 483d fbed cbbc 2d9e 7e3f
00000050: 50b7 973e 2ef3 e73b 42f1 98bb f9fb 9d3d
00000060: d660 cabe d003 42be 5eb4 e1bd 2f78 52be
00000070: ac90 3bbd dbbe c93b d3a8 013e cb06 a83e
00000080: 0435 673d 47d9 10be 076f c83e 58d3 bf3e
00000090: 2e05 863e 5e34 64be dabb bc3e 1495 e13d
000000a0: 09b9 803e 8090 0e3d b5ff d3be 9e2c 4e3d
000000b0: 3463 643e c928 24bd 2302 803e ff1e 513e
000000c0: f4c8 fe3d a092 723e 45b0 e93e 156e a33e
000000d0: a74f be3e e405 98be 2eeb a5be 1211 083f
000000e0: 19dc 153e 813a c23e 1a86 023e 9593 85be
000000f0: 6947 34bd 2ad4 0bbf 62f4 2cbe 7fc8 923e
00000100: a934 073f f62b 873e 3095 573e a9d5 fe3e
00000110: 3c12 b6bc b97d ac3e 74f3 22be 64d7 653e
00000120: 9fde 6dbe ab72 1ebe d472 d8be e8a3 9ebe
00000130: f5a3 e93e 7372 6cbc 88f3 15be 08c3 303e
00000140: 0500 933e 5160 803e 0cc5 a83e f776 e5be
00000150: 0612 5abe 19cc 23be 554e e43b 3ee3 ab3e
00000160: 5eef 5fbe bd34 d13d 34c5 133e 1b4a 19be
00000170: 40bc 83be d19d 7d3d a174 4abe 0410 7c3e
00000180: bfcc f93e 1f7e e03b 0e41 a1bd 512c a7be
00000190: c87b 8d3e a77a adbe 1dad 01be 6a30 e6bd
000001a0: a597 c0be 7fe8 f7be 09cb 20bd ace8 b6be
000001b0: 3959 77be 0736 bfbe 797d 4e3e d738 4cbe
000001c0: c5f1 983e ea07 d83d 8aa7 663e 5325 0d3e
000001d0: 2bc2 553e 7402 47be 1ba3 c7be fbd8 c0be
000001e0: f033 1bbe 1f46 05bf 856b 7fbe 25d6 123e
000001f0: 8b33 69be d246 42bd 5642 53be 8003 17be
00000200: 6e72 a3bc b2a4 7cbe 938e 13be af8b 89be
00000210: fc41 ca3e 70d4 5ebe ef18 ef3e 8e01 d23e
00000220: f9f4 0e3e 5b98 e6be e4ac 263f 470b ca3e
00000230: 2e45 b93d caa7 8b3e 8158 d4bc 6b3d 0bbe
00000240: fc14 2a3e 830e a9be 33db cfbd 4c5a d53e
00000250: 4139 d73e c823 1cbe e459 7ebe 2614 b43c
00000260: 227b 05be 4b95 8a3e da51 743e 9993 4dbe
00000270: 4bf3 0d3e 59da b93d 4728 26be 5d09 2ebe
00000280: 55d0 d13e b704 363d 1924 8fbe 6703 1b3e
00000290: f8ed 5f3e fef2 0d3d da86 c13d 2753 f33e
000002a0: 2335 00be 9331 3d3e 40fb 09bf fe26 a4bd
000002b0: 9c40 27be c960 06be 3cb7 dc3e 404c 5bbc
000002c0: 400e f63e 2aef 1abe 9dbb 873e b93a bc3c
000002d0: a952 8abe a246 b03e 5595 8fbe 6751 cd3e
000002e0: 5725 ba3d 02a6 643e b1d3 883e 9cb8 873d
000002f0: d750 da3e 76cd 3b3f c514 47bf f8ae 65be
00000300: f4a4 58be b633 03bd 91e9 61be 97b4 073e
00000310: 3a74 763e 64f5 303e 5e9a 2c3d 42f3 66be
00000320: 0b0f e3bd b0a8 393e 9ce1 6cbe b098 99be
00000330: 5e58 86be 5b13 093e d8bd acbc a9ce 233e
00000340: 3762 b6be 70d3 8b3d c26b 39bd 5983 8a3e
00000350: 763f 16bd ba4e 963e fee9 1d3f 59b8 15bf
00000360: 3364 423e c062 1b3e df25 aabe 153b 0e3f
00000370: 9eb2 06bd 6be0 0a3f abc0 833e 5175 833e
00000380: 0085 8ebd 06b5 2d3f 18c4 1b3f 1fb0 243e
00000390: d6ff f8be faf4 113e 9c31 25be 5cd5 8b3e
000003a0: 09f9 f93e 23ff d1bd 0b84 203f 1d22 853e
000003b0: 9de0 7e3e cfe8 94be 2ca9 bebc c710 70be
000003c0: 9cff d0bd 890a 073f 8b38 3dbd 556e 1c3f
000003d0: ca64 4dbe c1a9 aa3d e1d2 41be d2d6 ccbe
000003e0: 1405 fe3e f014 9d3e 48ad 9fbe af2d 673d
000003f0: 4793 dfbd f925 c2bd 45e9 2d3f 943e 77bd
-0.053184953 -0.15134625 -0.10487674 0.0040625487 0.185082 -0.3372277 0.39737788 0.15911962
-0.31377295 0.40257144 -0.3337076 -0.018262034 0.071240455 0.05540806 -0.4149601 0.14349039
0.5989006 0.048996266 -0.024893751 0.9946011 0.29632044 0.00707855 -0.004667432 0.077140756
-0.39527005 -0.18946767 -0.110207304 -0.20553659 -0.045792267 0.006156785 0.12662058 0.32817683
0.056447044 -0.14145385 0.39147207 0.3746593 0.26175827 -0.22285601 0.3686207 0.110147625
0.2514117 0.034805775 -0.41406026 0.05033552 0.22303468 -0.04007796 0.2500163 0.2042198
0.124406725 0.23688745 0.45642295 0.31919923 0.37170145 -0.29691994 -0.3240599 0.5315105
0.14634742 0.3793526 0.12746468 -0.2608916 -0.044013415 -0.5462061 -0.168901 0.2866859
0.5281473 0.26400727 0.21053004 0.49772385 -0.022225492 0.3368967 -0.15913182 0.22445446
-0.23229454 -0.1547343 -0.42275107 -0.30984426 0.45632902 -0.014431584 -0.14643681 0.17261899
0.28710952 0.25073484 0.32962835 -0.44817325 -0.21295938 -0.15995826 0.0069673457 0.3357181
-0.21868655 0.10215137 0.14430696 -0.14969675 -0.2572956 0.061918084 -0.19771053 0.24615484
0.4878902 0.0068509723 -0.07873736 -0.32650998 0.276335 -0.3388264 -0.12663694 -0.11239703
-0.37615696 -0.48419568 -0.03925613 -0.3572439 -0.2415513 -0.37345907 0.20165052 -0.19943558
0.29871956 0.105483845 0.22524849 0.1378377 0.2087485 -0.1943453 -0.38991627 -0.37665543
-0.15156531 -0.5206012 -0.24943359 0.14339502 -0.22773568 -0.04743082 -0.20630774 -0.14747429
-0.019952025 -0.24672201 -0.14409856 -0.26864383 0.39503467 -0.21760726 0.4669871 0.4101681
0.13960637 -0.45038113 0.6510756 0.3946173 0.09046398 0.2727645 -0.025921108 -0.13597648
0.16609567 -0.33018884 -0.10149231 0.41670454 0.4203587 -0.15248024 -0.24838978 0.021982264
-0.13035253 0.27067026 0.23859349 -0.20075835 0.1386234 0.0907485 -0.16226302 -0.1699576
0.40979257 0.04443809 -0.27957228 0.15138017 0.21868122 0.034655564 0.09449549 0.47524378
-0.1252027 0.18475942 -0.53899 -0.0801525 -0.1633324 -0.13122858 0.43108547 -0.013384879
0.48057747 -0.15130296 0.26510325 0.02297722 -0.2701619 0.3442889 -0.2804362 0.40101168
0.09089153 0.22328952 0.26724008 0.06627008 0.426398 0.73360384 -0.77766067 -0.22430027
-0.21156675 -0.032031737 -0.22061755 0.13252483 0.24067774 0.17281109 0.042139404 -0.22553733
-0.110868536 0.18130755 -0.23132938 -0.29999304 -0.26239294 0.1338629 -0.021086618 0.15996803
-0.35621807 0.06827438 -0.04526878 0.27053335 -0.036681615 0.2935694 0.6168517 -0.5848442
0.18983535 0.15174389 -0.33232018 0.555589 -0.032885186 0.54248685 0.25732931 0.25675443
-0.069589615 0.67854345 0.6084609 0.1608281 -0.48632687 0.14253607 -0.16132206 0.27311218
0.4882281 -0.102537416 0.6270148 0.2600259 0.2489037 -0.2908387 -0.023274027 -0.234439
-0.102050036 0.5275045 -0.0461965 0.61105853 -0.20057979 0.08333159 -0.189281 -0.40007645
0.4961325 0.30680037 -0.3118689 0.05644005 -0.10916763 -0.09479899 0.67934066 -0.060362414

network_body._body_endoder.seq_layers.2.bias f4 [128]
00000000: 5231 a63d ddb5 8bbd 3b85 e73d b11c 933d
00000010: 9d6a e33d 6e6d ac3d c211 853d 4fc3 7fbd
00000020: c0f6 a73d 12f9 74bd 4e43 7b3d 93f7 7cbd
00000030: 3018 86bd 2408 843d 9b99 72bd e04e 81bd
00000040: a338 903d 93e7 9a3d 746d c03d a19c 79bd
00000050: 78cf 803d e8b5 73bd 4c89 4ebd 4b75 9a3d
00000060: 913b 9d3d bc00 7d3d 8601 b03d 7e62 a33d
00000070: 199e 943d 2acd e73d 0ab1 a43d bdf9 923d
00000080: 1aa7 81bd 178a 823d a567 aa3d d8ad 80bd
00000090: 6d20 9f3d 575d b93d 1ccf 77bd f6d5 c33d
000000a0: 6826 bc3d a32a b53d 9e3e 8fbd 4c03 ac3d
000000b0: c512 80bd d8b1 76bd 8d87 bc3d 9ec1 97bd
000000c0: 8a73 a83d 68f9 853d 11e0 87bd 95e2 71bd
000000d0: 5d2f a13d ff92 72bd ee84 83bd 7d0b 86bd
000000e0: 366d b33d 1f08 83bd eee9 83bd 167a ab3d
000000f0: 42b3 8cbd 7883 56bd f0a2 83bd 8782 9e3d
00000100: 0d75 893d fa6e ae3d d0f1 80bd 36e9 84bd
00000110: fa8c 55bd 5ae8 c83d 9cda 7dbd 2805 8c3d
00000120: 8fbf 733d 7db5 953d 58f7 71bd dee5 9a3d
00000130: 70fa b43d 1683 c13d 8ec3 a83d 1ad0 d53d
00000140: 87cd 74bd ad00 92bd 8fde 973d 8d31 aa3d
00000150: db7f 8abd 84fa 87bd d191 62bd 69df 80bd
00000160: 57c0 77bd b885 923d 2a48 983d 8a57 b33d
00000170: 8d82 c33d 2e86 a23d a5e8 86bd 13d6 b63d
00000180: 18d7 ad3d 2827 82bd ef3b a03d e149 973d
00000190: c366 a03d 6cc4 67bd 88b0 80bd e646 6b3d
000001a0: 5fc7 27bc 55d6 84bd 83b1 ba3d 998c 88bd
000001b0: 7661 c43d 42f2 81bd 8d9b 84bd c5f6 9b3d
000001c0: ef29 89bd a247 a63d 73af 80bd 3d17 a63d
000001d0: 3993 66bd 988d a33d 7b38 873d 48bc 77bd
000001e0: d793 ec3d 297f b83d 8f3d c33d d03f 953d
000001f0: 36c5 7fbd b29e b93d bd89 bb3d 3acc 8a3d
0.08114876 -0.06821797 0.113047086 0.07183207 0.11104319 0.084193096 0.06497528 -0.06244212
0.08201361 -0.059807844 0.061343484 -0.061759543 -0.06547582 0.06446865 -0.05922852 -0.06313872
0.070420526 0.075637005 0.093958765 -0.06094039 0.062895715 -0.05949965 -0.050423905 0.07541903
0.07677377 0.06176828 0.085940406 0.0797777 0.07256717 0.11318429 0.0804158 0.0717654
-0.063307 0.06373995 0.0832055 -0.06283158 0.077698566 0.09051006 -0.06050025 0.09562294
0.09187013 0.08846023 -0.06994365 0.08399066 -0.0625358 -0.0602282 0.09205542 -0.074099764
0.08225162 0.06541711 -0.06634534 -0.059053976 0.07870362 -0.059222218 -0.06421839 -0.0654516
0.08761065 -0.06398033 -0.06441103 0.083728954 -0.06870128 -0.052371472 -0.06427562 0.0773974
0.06711779 0.08517261 -0.06296122 -0.06489794 -0.0521364 0.098099425 -0.06197606 0.06836921
0.059508856 0.07310007 -0.059073776 0.07563375 0.0883683 0.09448831 0.08240424 0.10440083
-0.05976632 -0.07129035 0.074154966 0.08310232 -0.06762668 -0.06639579 -0.055314843 -0.06292612
-0.060486164 0.07154411 0.07435639 0.08756931 0.09546385 0.07935749 -0.06587342 0.0892755
0.084882915 -0.06355125 0.078239314 0.07387138 0.078321 -0.056583807 -0.06283671 0.05744066
-0.010240405 -0.06486193 0.09115889 -0.06667442 0.09588902 -0.06345035 -0.064749815 0.07615427
-0.06697451 0.081191316 -0.06283464 0.08109901 -0.056292746 0.07985991 0.0660257 -0.060482293
0.11551636 0.09008629 0.09533226 0.07287562 -0.062443934 0.09063472 0.09157131 0.067772344

network_body._body_endoder.seq_layers.2.weight f4 [128, 128]
00000000: d791 bebd 8e25 cdbd df4a d43d b424 c43e
00000010: 81c9 843e 3d4f a9bd c251 1abe ab99 82bb
00000020: eeac 4b3d 6cfa 4dbe 22bb 86be bab2 b23e
00000030: b692 00be 51a2 32be eff4 0c3e 748e e63d
00000040: 0db6 c3bd 2b0c efbd 8d89 7e3d b2f9 22be
00000050: 3c9a 633e f42d f1bc 64b4 11be db3e 933d
00000060: 2a40 a9bd cd37 12bd ffca e9bc 525d 093e
00000070: ee89 9c3e ded8 943c 587e 223e f8fe 903d
00000080: a0bb d7bd 9f55 2bbe 2655 403c debe 30bd
00000090: 69a7 36be feb5 6d3e 6be6 223e e217 103e
000000a0: 281f 6a3e 2b5a 82be e1c7 52be ecb0 b0ba
000000b0: 9480 ffbc 1ee8 5ebe b528 8abd e5ac 9a3d
000000c0: 7766 f9bd 1803 da3d 81b9 c6bb 0ab8 643e
000000d0: a64b 893e 56ee 813d be3a 86bd ab32 01be
000000e0: cd36 76bc 4cb6 83be 808a b93e 0b5e 8e3c
000000f0: 089a 453e 50f9 51be 3c92 d4bd 44b4 373e
00000100: cd63 fe3d b0eb 3dbd d80d 1dbe cc32 e5bd
00000110: 4503 de3c 9247 9c3d d619 283e 231c 883e
00000120: 4396 213d f4a0 a2be f3ed 903d 9da3 9ebd
00000130: 416d 133d 0b7e 41be b576 8e3e eed4 393e
00000140: 3436 afbe f05b a7bd cd0c 1cbe a1fc f43d
00000150: cb4b f43c 8533 6abe d34a 003e c00c 283e
00000160: a774 3c3e ac85 c73c 8968 1d3d 27eb 5c3d
00000170: 172a 053e f669 ddbd 037d afbd 67b1 843d
00000180: 7ed4 95bb 5c2a 553d 98c8 08be d0be 903e
00000190: 4b59 083e dd9b 3e3d 6125 733d 7fa6 4239
000001a0: 4631 1c3e f54c 74be 14df 9b3c ebed bc3e
000001b0: 2f25 43bd 6072 d6bc f213 b93a 1b05 2dbd
000001c0: f704 0b3e 973c 223e fb43 7bbe d98b 24bd
000001d0: 25e6 18be da8c edbc c4ab 5d3e 6ce5 1b3e
000001e0: b0ab 8bbe 760c c03d 46b8 47be 2404 7ebd
000001f0: dd64 c23d 3e2b 353b 2cd2 0fbe 5f78 d5bd
00000200: 5866 cd3d c711 e4bd 9eab 35be e150 5dbd
00000210: a41c e4bb 7ebe 813d 068d 983e 856c c43d
00000220: 82d0 08bd ce6c 023e 549a 913d 4c59 dcbd
00000230: 6db4 683d 1552 4dbd 46cc 503d 88af 3c3c
00000240: 1592 0abc 6b29 dd3d f823 803d 74f5 85bd
00000250: 4699 e93b 409f 5c3d 5992 f53d ffc0 ddbd
00000260: b102 b63d 70bf 9fbc 66c9 a3bd bd8d 543e
00000270: f70d 9fbd 6b0b 21bd 2e0f 0e3c 8487 71bc
00000280: b466 b73a 501b 27bd c446 053e 08a9 03be
00000290: 6f3b 943d e086 00be a252 c7bd f34c c2bd
000002a0: 26c2 e4bd 9c88 953d c763 72bd 67b3 373d
000002b0: 65d4 11bd 5ac2 9f3d a4d3 243d fd4a 9dbd
000002c0: 56ce 363e 6ce9 303c fcee 0fbe 6c68 adbc
000002d0: 9154 55bd b02d 003e 694f 25bd ebfb 9fbc
000002e0: 104e 473b d71c 313e 1d94 0abe b268 263e
000002f0: e30d 01be f20e 62be 3017 993d c02b a73a
00000300: cd52 17be f5fb fcba d098 d33d 9d56 99bc
00000310: cead 7b3d 7876 ce3c 8ad5 5cbd e970 98bd
00000320: 8a6f 24be 49bf f23c 354d b73c 1040 23bd
00000330: 5e42 a6bc 04cd e93d e247 a03d 18d3 74bc
00000340: 3d40 e13d 5bbd 36bd 9d6a 093e 7924 4bbc
00000350: eef1 44bd 073c f43c d3bf aebd 91b6 54be
00000360: c29e 35bd be34 38be b33e f1bd 6352 a0bd
00000370: f352 5bbd a54d 913d d6c4 3e3e 99ad 41be
00000380: d08e ccbd 4a41 eabd 5732 763e 6663 2abe
00000390: 4814 ddbb ece5 043e a3cd 8abd 60d1 f5bd
000003a0: 998a e23c c0b2 fc3d 0b87 c03d 70d5 ebbd
000003b0: 2bb5 f8bd f691 02be a870 3b3e eac9 b5bd
000003c0: 9399 c73d 6d83 9bbc eed1 213e 1c17 71bb
000003d0: da0e 13be 1a37 e1bd 656c 39be 7de7 cdbd
000003e0: f19a 3d3e 6415 d2bd 1dc6 fbbd 34c1 c33d
000003f0: e1f8 c23d e661 b33d 8d94 013e 1314 1fbe
-0.093051605 -0.100169286 0.10365843 0.38309252 0.25934985 -0.08267067 -0.1507025 -0.003985604
0.049725465 -0.2011506 -0.26314646 0.34901983 -0.12555966 -0.17444731 0.1376531 0.112576395
-0.09556208 -0.11672243 0.062142897 -0.15915564 0.22226804 -0.029440857 -0.1422897 0.07189723
-0.082641914 -0.035697747 -0.028539179 0.13414505 0.30573982 0.018169817 0.15868509 0.070798814
-0.105338335 -0.1673188 0.011739051 -0.043150775 -0.178373 0.23213956 0.1590821 0.1407161
0.22863448 -0.25459418 -0.2058406 -0.0013480461 -0.03118924 -0.21768233 -0.067460455 0.07552508
-0.12177747 0.10645121 -0.0060645943 0.2233583 0.26815528 0.06344287 -0.06554173 -0.12616985
-0.015027714 -0.2572502 0.3623848 0.017378828 0.1929704 -0.20505261 -0.103794545 0.1793986
0.12421379 -0.046367347 -0.15337312 -0.11191329 0.027101168 0.076308385 0.16416106 0.26583967
0.03944994 -0.31763422 0.07076635 -0.077460505 0.035992865 -0.18895738 0.2782494 0.18147632
-0.3422104 -0.081718326 -0.15239258 0.11962248 0.029821297 -0.22871216 0.12528543 0.16411114
0.18403874 0.024355732 0.03842977 0.053935196 0.13004337 -0.10811226 -0.08568766 0.06479149
-0.00457245 0.05204235 -0.1335777 0.28270578 0.13315313 0.04653536 0.05936182 0.00018563306
0.15253171 -0.23857482 0.01902727 0.36900267 -0.047642883 -0.026177585 0.0014120324 -0.042241197
0.13576113 0.15843426 -0.24537651 -0.04017243 -0.14931543 -0.028997827 0.21647555 0.15224236
-0.27279425 0.09377377 -0.19503888 -0.062015668 0.094918944 0.0027644183 -0.14045018 -0.104233496
0.10029286 -0.11136203 -0.17741248 -0.05403221 -0.006961422 0.063351616 0.29795092 0.09591011
-0.033401974 0.12736818 0.07109514 -0.107592195 0.056812692 -0.050127108 0.05097606 0.011516459
-0.00845768 0.107989155 0.062568605 -0.06540957 0.0071288673 0.05386281 0.11990804 -0.10827827
0.08887232 -0.019500464 -0.07997398 0.20757194 -0.077663355 -0.03931753 0.008670611 -0.014741782
0.00139924 -0.04079753 0.13015276 -0.12857449 0.072378986 -0.1255145 -0.09732558 -0.09487333
-0.111698434 0.07301447 -0.059177186 0.044848826 -0.035602946 0.078007415 0.0402409 -0.076803185
0.17852148 0.01079784 -0.14056009 -0.021167956 -0.052082602 0.12517428 -0.040358935 -0.019529304
0.003041152 0.17296158 -0.13533063 0.16250876 -0.12602954 -0.22076014 0.07475126 0.0012754127
-0.1477768 -0.0019301163 0.10331881 -0.018718058 0.06144505 0.025202975 -0.053914584 -0.07443411
-0.16058174 0.029632227 0.022375682 -0.039856017 -0.020295318 0.11416057 0.078262106 -0.014942907
0.109985806 -0.044614177 0.13419576 -0.0123988325 -0.048082285 0.02981378 -0.08532681 -0.20772769
-0.044340856 -0.1798887 -0.11779537 -0.07828214 -0.053545903 0.07094888 0.18629774 -0.18913879
-0.09988177 -0.11438234 0.2404264 -0.1663948 -0.0067468025 0.12978333 -0.06777503 -0.12002826
0.02765398 0.12338781 0.094007574 -0.11515319 -0.1214393 -0.12750992 0.18304694 -0.08876403
0.09746089 -0.018983567 0.15802738 -0.0036787456 -0.14361134 -0.10996838 -0.18107755 -0.100539185
0.18516137 -0.10257986 -0.122936465 0.09558335 0.09520126 0.08758907 0.12654324 -0.15535001
