Assets/My Behavior-500065.onnx (onnx, 87848 bytes, 9 tensors)

action_model._discrete_distribution.branches.0.bias f4 [16]
0	0xb9215d20	-0.00015388848
1	0xbb8f7d2e	-0.0043789363
2	0xbb552124	-0.0032520974
3	0xbb33b797	-0.002742266
4	0x3c36b721	0.01115206
5	0x3b7e9f63	0.0038852326
6	0xb808e16c	-3.2634867e-05
7	0xbaa7ec1e	-0.0012811457
8	0xba8edd6c	-0.0010899729
9	0x3b01aa19	0.0019785224
10	0x3b42c51f	0.0029719544
11	0xbb05c22c	-0.0020409925
12	0xba832f1e	-0.0010008549
13	0xbb6eaf37	-0.0036420354
14	0xbb62b8b2	-0.003459495
15	0xbb9b92c5	-0.004747721

action_model._discrete_distribution.branches.0.weight f4 [16, 128]
0	0xbc10e390	-0.008843318
1	0xbc043e38	-0.008071475
2	0xbbe8caef	-0.0071042697
3	0xbb74d419	-0.0037357865
4	0xbc9d56c3	-0.01920641
5	0x3b982a18	0.00464369
6	0x3cf08711	0.02936128
7	0x3bf7424f	0.0075457464
8	0x3c86bbb9	0.016446935
9	0x37bed775	2.2750095e-05
10	0xbd5034c0	-0.050831556
11	0xbc4cc4fe	-0.0124981385
12	0x3be29ed5	0.006915907
13	0xbb53c176	-0.0032311357
14	0xbbc6d4d2	-0.0060678506
15	0x3c0e9c4d	0.008704257
16	0x3c2418ee	0.010015709
17	0x3c3ab00d	0.011394513
18	0xbc612c47	-0.013743467
19	0xbb439c2f	-0.0029847731
20	0xbc30c33d	-0.010788736
21	0xbba842df	-0.005134925
22	0xbc3c6b0a	-0.0115001295
23	0xbd44eff6	-0.048080407
24	0x3c974757	0.018466635
25	0xbc43b0cd	-0.011944008
26	0x3c1efd32	0.009703921
27	0xbb84a8a5	-0.0040484243
28	0xbae9a5c9	-0.0017825897
29	0xbc4933d9	-0.012280428
30	0x3c28ccf2	0.010302769
31	0xbc64744b	-0.013943742
32	0x3b7f427e	0.0038949545
33	0xbd3c00f5	-0.04589935
34	0xbcc7758a	-0.02434804
35	0x3c083c7f	0.008315205
36	0xba7d3fff	-0.000966072
37	0xbe3a4b46	-0.18192777
38	0x3c9b102f	0.018928615
39	0x3c8c0929	0.017094212
40	0x3bf64d10	0.007516511
41	0x3c3f4141	0.011673273
42	0x3c294986	0.010332471
43	0xbb310d17	-0.0027015859
44	0x3ba2cb18	0.0049680583
45	0x3c272232	0.010201024
46	0xba5896e9	-0.00082622335
47	0x3bf50c1a	0.0074782493
48	0x3cb9a277	0.022660477
49	0x3bd2ec31	0.0064368476
50	0x3c29722c	0.010342162
51	0xbc96e4cd	-0.018419648
52	0xbc00a619	-0.007852101
53	0xbb9d3c2a	-0.004798432
54	0x3bdffbea	0.0068354504
55	0x3bc2ccdc	0.0059448313
56	0xbaa2ff34	-0.0012435676
57	0x3c55f6a1	0.013059289
58	0xbbbeca36	-0.0058224453
59	0xbc43d30a	-0.011952171
60	0x3c607158	0.013698898
61	0xbbea95e5	-0.007158982
62	0x3c856928	0.016285494
63	0xbb8d0a29	-0.0043041897
64	0x3bbf6ca5	0.005841809
65	0xbc13feed	-0.009032947
66	0x3c8e1f92	0.017349038
67	0x3cb25a7a	0.021771658
68	0x3c6faa00	0.0146279335
69	0x3c76d547	0.015065498
70	0xbc923474	-0.017847277
71	0xbb6b2567	-0.0035880448
72	0xbb711b3c	-0.0036789915
73	0x3c50719b	0.012722398
74	0x3c12cfee	0.008960707
75	0x3c04fae5	0.008116459
76	0x3bc37d08	0.0059658326
77	0x3c374dde	0.011187999
78	0x3c613281	0.013744951
79	0xbc12be30	-0.008956477
80	0x3c9c449c	0.019075684
81	0xbc8337e5	-0.016017864
82	0x3c3d17bd	0.011541304
83	0x3ba6f027	0.0050945464
84	0xbb7d2644	-0.0038627544
85	0x3b586c8c	0.0033023683
86	0xb939ad9a	-0.00017707646
87	0x3aac22b1	0.0013132897
88	0x3cb7a0fc	0.02241563
89	0x3a2bc1e8	0.00065520266
90	0x3affce91	0.0019516518
91	0x3bed7e3c	0.0072477143
92	0x3bacb84b	0.005270993
93	0x3b5a194b	0.0033279236
94	0x3b8d9936	0.0043212427
95	0x3bbbe02b	0.00573351
96	0x3c001e55	0.007819732
97	0xbcefb939	-0.029263126
98	0xbc2a7737	-0.0104044
99	0xbe1574f4	-0.14595395
100	0xbbd83684	-0.0065982956
101	0xbc970a70	-0.018437594
102	0xb9cf6296	-0.0003955557
103	0x3ccf63a4	0.025316067
104	0xbaf4d0ff	-0.0018678008
105	0x3b86b541	0.0041109626
106	0xbd5d2c19	-0.053997133
107	0xbc8bf016	-0.017082255
108	0x3b8c801b	0.0042877323
109	0x3c00ee72	0.00786935
110	0xbc9b94cc	-0.01899185
111	0xbc8888b5	-0.01666675
112	0x3c7bba6f	0.015364273
113	0xbc98a2cb	-0.018632313
114	0x3c547f6d	0.012969834
115	0x3c2d4b25	0.010576998
116	0x3c6040e3	0.013687345
117	0xbc0aae1b	-0.008464362
118	0xbc14cd9e	-0.009082226
119	0xbb8d8c7d	-0.004319726
120	0x3c8f31e9	0.017479854
121	0xbcbf81a1	-0.023377242
122	0x3c30ce41	0.010791362
123	0x3c8ac9a9	0.016941862
124	0x3b279293	0.0025569543
125	0x3c348839	0.011018806
126	0x3cacd230	0.021096319
127	0xb95e65b1	-0.00021209453
128	0x3c7862c6	0.015160268
129	0x3c218941	0.009859384
130	0xbbbe17b4	-0.0058011655
131	0x3b643b27	0.0034825297
132	0x3b58a538	0.0033057462
133	0xbbca173f	-0.006167322
134	0xbc5dff26	-0.013549602
135	0x3b94d07f	0.0045414562
136	0xba0cbe69	-0.00053689495
137	0xbbc404da	-0.0059820237
138	0x3c919877	0.017772896
139	0x3b39e9ef	0.0028368195
140	0x3be35d2b	0.0069385967
141	0x3a81506b	0.0009865885
142	0x3c8201e7	0.015870048
143	0x3c359d7f	0.011084913
144	0x3c3579ac	0.011076372
145	0x3d35edd7	0.044416275
146	0xbab0cc8d	-0.0013488695
147	0xbbbd52d0	-0.0057776943
148	0xbc6d4bad	-0.014483375
149	0xbcb158d7	-0.021648807
150	0x3c24cd73	0.010058749
151	0x3cb1d843	0.021709567
152	0xbbfd1616	-0.00772358
153	0xbb930f5c	-0.004487915
154	0xbbd16fdf	-0.00639151
155	0x3c13ae46	0.009013718
156	0x3c6b9079	0.014377707
157	0x3c6ec237	0.014572672
158	0xbc5c34f8	-0.013440363
159	0x3c7d1ac6	0.015448278
160	0x3c673667	0.014112092
161	0x3c16e81f	0.009210615
162	0xbbb2b01e	-0.0054531237
163	0xba135ac2	-0.0005621129
164	0xbbb84ea0	-0.005624607
165	0x3c56a8f6	0.013101807
166	0x3c06bc4b	0.0082236035
167	0xbc498bfc	-0.012301441
168	0xb9bddd95	-0.0003621398
169	0x3d4a2409	0.049350772
170	0xbcb86766	-0.022510242
171	0xbbcf89bd	-0.0063335584
172	0x3a9f210e	0.0012140588
173	0x3c63e2f9	0.013909095
174	0x3cd80415	0.026369134
175	0xbaa521cf	-0.0012598577
176	0x3c84c2bb	0.016206136
177	0x3d117641	0.035513166
178	0xb98a979d	-0.00026434372
179	0xbcae75ca	-0.0212964
180	0x3b941a3e	0.00451973
181	0xbb230c13	-0.0024879023
182	0x3c723826	0.014783895
183	0x3c1d413c	0.009598073
184	0x3bec98a7	0.007220346
185	0x3ba447e4	0.005013453
186	0x3b650659	0.003494641
187	0x3b4cdd0e	0.0031259689
188	0x3ce55646	0.02799524
189	0x3ba285d1	0.0049598
190	0x3c9ba720	0.01900059
191	0x3b961add	0.004580839
192	0x3ac9882c	0.0015375665
193	0x3c4023a0	0.011727244
194	0x3c7cc0d8	0.015426837
195	0x3b1b8020	0.0023727491
196	0x3bb490b7	0.0055104154
197	0xbbf802d8	-0.0075686984
198	0x3c8b572c	0.01700934
199	0xba9c54d6	-0.0011927139
200	0x394f00af	0.00019741313
201	0x3ab188db	0.0013544814
202	0x3b7fd146	0.0039034649
203	0xbbb89ba3	-0.0056337877
204	0xbc314e96	-0.010821959
205	0xbba1e101	-0.0049401526
206	0xbb3ea7fe	-0.002909183
207	0xb8ca3861	-9.642612e-05
208	0x3c01ace7	0.007914758
209	0xbb7c3dd3	-0.0038488999
210	0xbbdce84e	-0.00674156
211	0x3b6de433	0.0036299347
212	0xbb3e0c75	-0.0028999124
213	0x3b8e021b	0.004333747
214	0x3ccafc8a	0.024778623
215	0x3b89480b	0.0041894964
216	0xbcc0ab8d	-0.023519302
217	0x3c8942a4	0.01675541
218	0x3d317318	0.043322653
219	0xbbef587b	-0.007304249
220	0x3b2e16e2	0.0026563932
221	0xbacad54b	-0.0015474943
222	0x3c28f8ef	0.010313257
223	0x3c45d6e6	0.012075162
224	0xbc1e043b	-0.009644563
225	0x3cc4bd0f	0.024015931
226	0x3c257be3	0.010100338
227	0x3b8b70a4	0.004255371
228	0xbca134d1	-0.019678505
229	0x3beca17d	0.0072213993
230	0x3b8ff561	0.004393265
231	0x397cd479	0.00024111745
232	0x3c837ca1	0.016050639
233	0xbc9a26b7	-0.018817289
234	0xbb536bf0	-0.003226038
235	0x3c918fbd	0.017768735
236	0xbbebe322	-0.007198707
237	0x3b83863d	0.004013805
238	0x3c8c03a2	0.017091576
239	0xbc0e4771	-0.008684025
240	0xbb306f56	-0.002692183
241	0x3ba73f33	0.0051039695
242	0xbb636d25	-0.0034702506
243	0x3c223d9e	0.009902386
244	0xbc717fa7	-0.014739907
245	0x3afab01e	0.0019125973
246	0xbc398e8e	-0.011325492
247	0x3c597dda	0.013274634
248	0x3c5c2af7	0.013437978
249	0x3c6d4920	0.014482766
250	0x3bc47200	0.005995035
251	0x3ce0972a	0.02741583
252	0xbdb7730f	-0.089574926
253	0x3c335b1c	0.010947015
254	0x3c508eef	0.0127293905
255	0xbc3b9382	-0.011448743

action_model._discrete_distribution.branches.1.bias f4 [4]
0	0xbc949d6a	-0.018141467
1	0xbc8e87c2	-0.017398719
2	0x3ccce371	0.025010796
3	0xbc4e0a13	-0.012575644

action_model._discrete_distribution.branches.1.weight f4 [4, 128]
0	0xbcd5d933	-0.026104545
1	0x3cd76932	0.026295278
2	0x3c954cba	0.018225063
3	0x3cc45658	0.023966953
4	0x3d1113e4	0.03541936
5	0xbc70b3f4	-0.014691342
6	0x3cc38d01	0.023870947
7	0x3cc42ef3	0.023948168
8	0x3cad1a6a	0.02113076
9	0xbd3a0abc	-0.045420393
10	0xbd06c617	-0.032903757
11	0xbd16b28b	-0.036791366
12	0xbc9e1ac0	-0.019299865
13	0xbcbc9240	-0.023018956
14	0x3d044f53	0.032302212
15	0x3c7dfc37	0.015502027
16	0x3ccb9fd5	0.024856487
17	0x3c3303ac	0.010926168
18	0x3cfffbdd	0.031248027
19	0xbd2303c8	-0.039798528
20	0x3ce94f4b	0.028480193
21	0xbcd2d906	-0.02573825
22	0x3c9b9ccd	0.018995667
23	0x3c9f9d29	0.01948412
24	0xbd23a85e	-0.03995549
25	0x3cb79f84	0.02241493
26	0xbd06b54e	-0.03288775
27	0xbcb15fd7	-0.021652145
28	0x3ce5e7ca	0.028064627
29	0xbd19ab92	-0.037517138
30	0xbd416359	-0.047213886
31	0x3c82f20b	0.015984556
32	0x3c89fe3e	0.016844865
33	0xbc6c8219	-0.014435315
34	0x3b2583af	0.0025255491
35	0xbd25c48e	-0.040470652
36	0x3c9521d6	0.01820461
37	0x3b578470	0.0032885335
38	0x3d0efd65	0.034909625
39	0xbd04d34b	-0.032428067
40	0xbd227cf4	-0.039669946
41	0x3c18a98f	0.00931777
42	0xbcc5c16a	-0.024140079
43	0xbd17d57d	-0.037068833
44	0xbd21bfa6	-0.03948941
45	0x3d08e3c6	0.033420347
46	0x3cb7ef8f	0.022453098
47	0xbd0070e1	-0.03135765
48	0xbc9fd269	-0.019509511
49	0x3c0aec11	0.008479134
50	0xbc82d26b	-0.015969476
51	0xbcd7844a	-0.026308198
52	0x3d051165	0.03248729
53	0xbcbb17fd	-0.022838587
54	0x3cfa58cd	0.030559922
55	0xbca0729c	-0.0195859
56	0xbc561c32	-0.013068246
57	0x3cc97d50	0.024595886
58	0xbcc7916b	-0.024361333
59	0xbd349776	-0.044089757
60	0x3c67b614	0.014142532
61	0xbcc8bd01	-0.024504187
62	0xbaf2beef	-0.0018520037
63	0xbaa32518	-0.0012446968
64	0xbcf682ca	-0.030091662
65	0x3c6ffb10	0.01464726
66	0x3c9bc45f	0.019014535
67	0xbd47e217	-0.0487996
68	0xbd2487de	-0.040168636
69	0xbd180096	-0.037109934
70	0xbd11d17a	-0.035600163
71	0x3d0c16a0	0.034201264
72	0x3bfbbf9a	0.007682753
73	0x3cf37cec	0.029722653
74	0x3c8f5851	0.017498167
75	0xbceb3c52	-0.028715286
76	0xbd294941	-0.041329626
77	0x3c3cd161	0.011524529
78	0xbca3072d	-0.019900883
79	0xbd0be067	-0.034149554
80	0xbc9a0ebd	-0.018805856
81	0xbcdef506	-0.027216446
82	0x3d05ad31	0.03263587
83	0xbd2b1ae7	-0.041773703
84	0xbd0da267	-0.034578707
85	0x3c292248	0.010323115
86	0xbd4ad042	-0.049515016
87	0xbd33f32d	-0.043933082
88	0xbd4b5ba6	-0.04964795
89	0x3c8e797e	0.017391916
90	0xbb053a86	-0.0020329072
91	0xbd2d107c	-0.04225205
92	0xbd0cd5ab	-0.034383457
93	0xbcb07d8e	-0.021544244
94	0x3c6f39d5	0.014601191
95	0xbd2909ef	-0.04126924
96	0xbcbcc137	-0.02304135
97	0xbc4fdbc0	-0.01268667
98	0x3cbc2e7c	0.022971384
99	0x3d0f95f4	0.035055116
100	0xbcd51166	-0.026009273
101	0xbc964e20	-0.0183478
102	0x3d30157e	0.042989247
103	0xbd4a37cf	-0.04936963
104	0x3cc2285a	0.023700882
105	0xbd294afd	-0.04133128
106	0x3cb7d2cd	0.022439385
107	0xbce63256	-0.028100174
108	0xbd215223	-0.039384972
109	0xbc8526fe	-0.016253944
110	0xbd1350c8	-0.03596571
111	0x3cdecf32	0.027198408
112	0x3cc0fc2a	0.023557741
113	0x3cb0d11f	0.021584092
114	0xbd184b12	-0.037180968
115	0xbd311d5f	-0.0432409
116	0xbd235f03	-0.039885532
117	0x3cda4760	0.026645362
118	0xbd2a2c63	-0.041546237
119	0xbce907ce	-0.028446104
120	0x3d10d841	0.035362486
121	0xbcd88803	-0.026432043
122	0xbcababee	-0.020956006
123	0xbc175bc6	-0.009238189
124	0x3b8f7f42	0.004379184
125	0x3c866c81	0.01640916
126	0x3cf26e81	0.029593708
127	0xbcb4d8a4	-0.022075959
128	0xbcb05e55	-0.021529356
129	0x3c3cdbe6	0.011527037
130	0x3c87873a	0.016543973
131	0x3cd167cb	0.025562188
132	0x3ceac197	0.028656764
133	0xbca85bcd	-0.020551587
134	0x3c90901f	0.017646847
135	0x3c9d495e	0.019200023
136	0x3c15dc68	0.009146787
137	0xbca9aeb5	-0.02071319
138	0xbc7d1593	-0.015447038
139	0xbd24026c	-0.040041372
140	0xbd0811ba	-0.03322003
141	0xbd0bde06	-0.034147285
142	0x3cda1e96	0.026625913
143	0x3c1c03ea	0.009522418
144	0x3ca950bd	0.020668382
145	0x3c0b00d3	0.008484083
146	0x3cd713c9	0.026254551
147	0xbd0bb00e	-0.034103446
148	0x3c1a06ad	0.009401006
149	0xbca844ac	-0.020540558
150	0x3cbba6bf	0.02290666
151	0x3c8b4681	0.017001392
152	0xbd21d11f	-0.039506074
153	0x3cca0922	0.024662558
154	0xbd17b045	-0.037033338
155	0xbd08bf4c	-0.03338556
156	0x3c275eeb	0.010215501
157	0xbcc883d0	-0.024476916
158	0xbd13d81e	-0.036094777
159	0x3c72695a	0.014795626
160	0x3bb99ad8	0.0056642108
161	0xbca1b6fc	-0.019740574
162	0xbbcd23e4	-0.006260382
163	0xbcf5dec3	-0.030013448
164	0x3cc54f43	0.024085646
165	0x3c28c49b	0.010300781
166	0x3c6c2947	0.014414138
167	0xbc84955f	-0.016184507
168	0xbd746c88	-0.059673816
169	0x3b8564c7	0.0040708515
170	0xbcd0dfe2	-0.02549738
171	0xbd4e550e	-0.050374083
172	0xbcf183f0	-0.029481858
173	0x3d017b37	0.031611647
174	0x3ce8df19	0.028426694
175	0xbce90bb1	-0.028447958
176	0xbc9a1ecd	-0.018813515
177	0x3cd3c9d8	0.025853083
178	0xbb5b356c	-0.003344859
179	0xbd16e85b	-0.036842685
180	0x3ca198c6	0.019726168
181	0xbcfe2a3d	-0.031026
182	0x3c965080	0.018348932
183	0xbc3136d9	-0.010816299
184	0xbcbfe366	-0.023423862
185	0x3cd01dcc	0.025404833
186	0xbd2fb434	-0.042896464
187	0xbd029450	-0.031879723
188	0x3c99449c	0.018709473
189	0xbd3bcbac	-0.045848534
190	0x3aabc635	0.0013105335
191	0xbc482b58	-0.012217365
192	0xbd42452c	-0.04742925
193	0x3cba2ae6	0.022725534
194	0x3c696797	0.014245889
195	0xbd367387	-0.04454377
196	0xbd5d6f67	-0.05406132
197	0xbcfbd9a0	-0.03074342
198	0xbd3406e4	-0.043951884
199	0x3cfd0909	0.030888097
200	0xbaba22bf	-0.0014201029
201	0x3c98d71d	0.018657262
202	0x3d162c16	0.036663137
203	0xbc366028	-0.011131324
204	0xbcf16090	-0.02946499
205	0x3c949691	0.018138202
206	0xbce3e0f7	-0.027817233
207	0xbcf18e76	-0.029486876
208	0xbcb88710	-0.02252534
209	0xbd0df765	-0.034659762
210	0x3c574161	0.013138146
211	0xbcacb58e	-0.021082666
212	0xbd231dcd	-0.039823342
213	0x3cff4341	0.031159999
214	0xbd290350	-0.041262925
215	0xbca35a8c	-0.019940637
216	0xbd214c50	-0.039379418
217	0x3d0afe9e	0.033934228
218	0x3c600082	0.013671996
219	0xbd173f46	-0.036925577
220	0xbcefe654	-0.029284634
221	0xbd1ab805	-0.03777315
222	0x3cc942de	0.024568018
223	0xbc8bcb29	-0.017064648
224	0xbd041ea8	-0.0322558
225	0xbb804b61	-0.003915236
226	0x3d1b7562	0.03795374
227	0x3cb504c3	0.022096997
228	0xbcc65790	-0.024211675
229	0xbcf294ef	-0.029612033
230	0x3cb17f1d	0.021667058
231	0xbd1da5aa	-0.038488068
232	0x3c98120d	0.018563295
233	0xbd063474	-0.032764867
234	0x3ca77fca	0.020446677
235	0xbc5cfa57	-0.01348742
236	0xbd6c7aaf	-0.057734188
237	0xba9a5200	-0.0011773705
238	0xbd39fed4	-0.04540904
239	0x3c23913c	0.009983357
240	0x3c8c4db9	0.017126905
241	0x3cc15404	0.023599632
242	0xbd0ddb52	-0.03463299
243	0xbcce34a4	-0.025171585
244	0xbc934b28	-0.017980173
245	0x3d09eb4c	0.033671662
246	0xbd31a698	-0.043371767
247	0xbd151c96	-0.036404215
248	0x3c9e3194	0.01931075
249	0xbcfc6ba4	-0.030813046
250	0xbd46318a	-0.048387088
251	0x3ba727c5	0.0051011764
252	0x3b8a8f06	0.0042284755
253	0x3bc4a507	0.006001118
254	0x3caf5c38	0.021406278
255	0xbce1ee17	-0.02757935

discrete_action_output_shape f4 [1, 2]
0	0x41800000	16.0
1	0x40800000	4.0

network_body._body_endoder.seq_layers.0.bias f4 [128]
0	0x3dafd0c7	0.08584743
1	0x3d178e96	0.037001215
2	0x3bea4b0d	0.00715006
3	0x3d1e0cf0	0.038586557
4	0x3c0d5209	0.008625516
5	0xbc8e825f	-0.01739615
6	0x3cd02f22	0.0254131
7	0x3d142642	0.036169298
8	0x3d8d80a4	0.06909302
9	0xbc130184	-0.008972529
10	0x3d67683d	0.056495894
11	0x3d4b06b4	0.04956694
12	0x3c91a555	0.017779032
13	0x3bcc840d	0.0062413276
14	0x3c8ca3c5	0.017167935
15	0x3d0c3e5b	0.034239154
16	0xbbabe2fe	-0.0052455654
17	0x3d1511e7	0.036394026
18	0xbd0df10d	-0.034653712
19	0xbc912b5f	-0.017720876
20	0x3d1aac09	0.03776172
21	0x3d8b6bf7	0.06807702
22	0x3d0cb87c	0.034355626
23	0xbbe90015	-0.0071106055
24	0x3d2df922	0.04247392
25	0x3cfa6590	0.030566007
26	0x3cd782a8	0.026307419
27	0x3d409815	0.047020037
28	0x3d3a341a	0.045459844
29	0x3b021f78	0.0019855183
30	0x3d044a77	0.032297578
31	0xbce077d5	-0.02740089
32	0x3d78dac3	0.060755502
33	0x3d0445da	0.03229318
34	0x3d795450	0.060871422
35	0x3d22f449	0.03978375
36	0xbcd3ee5c	-0.025870495
37	0x3d45b8f3	0.048272084
38	0x3cc3c06d	0.023895467
39	0x3d2cdb9f	0.042201634
40	0x3ce229bd	0.027607793
41	0xbceeed95	-0.029166022
42	0xbd024351	-0.03180248
43	0xbcbc1ee9	-0.022963958
44	0xbcbdb070	-0.023155421
45	0x3d2a0b2d	0.041514564
46	0x3cd95493	0.026529586
47	0xbb2f118a	-0.0026713335
48	0x3d12eab6	0.03586837
49	0xbd2986c3	-0.041388284
50	0x3d24dee0	0.040251613
51	0xbc9e72f5	-0.019341925
52	0x3d7bf356	0.06151136
53	0xbc965416	-0.018350642
54	0xbca9cfce	-0.020728972
55	0xbd181095	-0.03712519
56	0x3cf57174	0.029961325
57	0x3d203d20	0.039120793
58	0x3d17dde8	0.03707686
59	0x3bd74fa5	0.0065707737
60	0xbcac2724	-0.021014757
61	0x3da8affe	0.08236693
62	0x3d03053a	0.031987406
63	0xbcd638cd	-0.026150132
64	0x3cff9da4	0.031203099
65	0x3d069057	0.032852497
66	0x3d0a4adb	0.033762794
67	0xbc87cc0e	-0.016576793
68	0x3d12eb6a	0.03586904
69	0x3d00e621	0.031469468
70	0xbc0f4800	-0.0087451935
71	0xbbfec5b4	-0.007775033
72	0x3d1166e3	0.03549851
73	0x3d0c6a2b	0.034280937
74	0x3d6fb224	0.058519498
75	0xbccafb2d	-0.024777973
76	0x3d2f4911	0.04279429
77	0x3d9ddfd7	0.0770871
78	0x3d7b79f1	0.06139559
79	0x3d820c9e	0.06350063
80	0x3d0a3f55	0.033751804
81	0x3d56894b	0.052377027
82	0x3d00d179	0.03144977
83	0x3d01d8ae	0.031700782
84	0xbd08c867	-0.033394244
85	0x3d190e73	0.037367295
86	0x3ca61834	0.020275213
87	0xb9b4e6f6	-0.00034504355
88	0x3d25e594	0.040502146
89	0xbcc34ca4	-0.023840256
90	0x3cac7ab4	0.021054603
91	0xbb1aa822	-0.002359875
92	0xbd0542bd	-0.03253435
93	0x3cf7df17	0.030257745
94	0x3c9e4f31	0.01932487
95	0x3cb55d78	0.022139296
96	0xbb236407	-0.0024931447
97	0x3d11b2b0	0.0355708
98	0x3c7b3fc3	0.015335026
99	0x3d80ae5b	0.06283256
100	0x3d933077	0.07186978
101	0xbd611eb8	-0.054960936
102	0x3d4e1f8a	0.050323047
103	0xbc70e54a	-0.014703104
104	0x3d08b9c5	0.03338029
105	0x3d0da5e5	0.034582037
106	0x3d41aa55	0.047281582
107	0xbcb04cd1	-0.021521004
108	0xbcf19806	-0.029491436
109	0xbc9161c5	-0.017746815
110	0xbc9464a2	-0.018114392
111	0xbcfb9346	-0.030709874
112	0x3ca0b412	0.019617114
113	0x3d0feb7c	0.035136685
114	0x3d341543	0.04396559
115	0x3c1696d6	0.0091912355
116	0xbca916c7	-0.020640744
117	0x3c70bac5	0.014692967
118	0x3d6d6187	0.057954337
119	0x3d0de3e7	0.034641173
120	0xbd34af1a	-0.044112302
121	0xbc9b184e	-0.018932488
122	0x3d292052	0.04129059
123	0x3d15cd63	0.036572825
124	0xbb825258	-0.0039771013
125	0x3cc205dd	0.023684436
126	0xbcad84a2	-0.021181408
127	0xbbe4c6be	-0.0069816997

network_body._body_endoder.seq_layers.0.weight f4 [128, 16]
0	0x3d076977	0.033059563
1	0x3d8ff20e	0.0702859
2	0x3db43861	0.08799816
3	0x3d37d724	0.04488291
4	0xbef951f5	-0.4869534
5	0x3e863118	0.2620933
6	0x3d8cdb0b	0.06877717
7	0x3ea9a3f0	0.33132887
8	0xbe98b26a	-0.2982362
9	0x3ddd10c9	0.10794217
10	0xbe8cf9f4	-0.2753445
11	0x3e24e6f6	0.1610373
12	0x3b4e5858	0.0031485762
13	0x3f4381e5	0.7637008
14	0xbd569307	-0.05238631
15	0xbdc673b2	-0.09690036
16	0x3c98e48e	0.01866367
17	0x3daf70f3	0.08566465
18	0x3e59be9a	0.21264115
19	0x3deeb46e	0.11655508
20	0x3ee826b9	0.45342043
21	0x3d1c0640	0.038091898
22	0x3d84998b	0.064745985
23	0xbd8cc461	-0.06873394
24	0x3e1b3fcb	0.15161054
25	0x3eec090b	0.4610065
26	0xbe84b9ef	-0.25923106
27	0xbbdd5487	-0.006754461
28	0x3d45d949	0.048302922
29	0xbde6123d	-0.112339474
30	0xbe0d7b46	-0.13816556
31	0xbd53c0bf	-0.05169749
32	0x3e32808e	0.17431852
33	0xbe83c766	-0.25738066
34	0x3d55a80d	0.05216222
35	0x3bb54db5	0.005532945
36	0xbd554a20	-0.052072644
37	0x3e49b294	0.19697028
38	0xbe3737fe	-0.17892453
39	0xbc88aadd	-0.016683036
40	0xbf1db1f8	-0.61599684
41	0xbe89a261	-0.26881698
42	0xbb39c80e	-0.0028348002
43	0x3dff0544	0.12452176
44	0x3d6c48cf	0.057686623
45	0xbeca65d0	-0.39530802
46	0x3c5f2614	0.013619918
47	0xbf05e4d5	-0.52302295
48	0xbdaf1210	-0.08548367
49	0x3cd82117	0.026382966
50	0x3d4c85af	0.049932178
51	0x3da0db89	0.07854373
52	0x3f23dc08	0.64007616
53	0x3e060994	0.13089591
54	0xbdc80033	-0.09765663
55	0xbe4fcef5	-0.20293792
56	0x3dc500b4	0.09619275
57	0x3e61956f	0.2202966
58	0x3e120b86	0.14262208
59	0x3d63cfde	0.05561816
60	0x3d298e2d	0.041395355
61	0x3e38d299	0.18049087
62	0xbe689bbf	-0.22715662
63	0xbcb03aca	-0.021512408
64	0xbe74c37f	-0.23902701
65	0xbdad0b7c	-0.08449456
66	0x3e5f6c39	0.21818627
67	0xbed5804d	-0.41699448
68	0xbe826ec9	-0.25475147
69	0x3e6f50e7	0.23370706
70	0xbb53df78	-0.0032329243
71	0x3f33afcc	0.7019012
72	0xbe48e4f8	-0.19618595
73	0x3d51610f	0.051117953
74	0xbd8ceb98	-0.068808734
75	0x3d39c0f2	0.045350023
76	0xbdbcaced	-0.092126705
77	0x3e808b40	0.2510624
78	0x3cc8333f	0.024438499
79	0xbe52c6ad	-0.20583601
80	0x3e7c3729	0.24630417
81	0xbeba8bc8	-0.3643477
82	0x3e4d7485	0.2006398
83	0x3df7a6f5	0.120923914
84	0x3d9e9186	0.077426
85	0xbe55ed7f	-0.20891379
86	0x3e8ac97c	0.27106845
87	0x3e6bc2a1	0.23023464
88	0xbeb7455d	-0.35795107
89	0xbee8911b	-0.45423207
90	0x3e0417de	0.1289973
91	0xbe92786e	-0.28607506
92	0xbe905be2	-0.281951
93	0xbe97b614	-0.29631102
94	0xbe22e38f	-0.15907119
95	0xbd266283	-0.04062129
96	0xbe251afc	-0.16123575
97	0x3e8e0ee9	0.2774575
98	0xba735463	-0.0009282289
99	0x3e8fb0a1	0.28064445
100	0x3e8a4559	0.27006033
101	0x3e2052dd	0.1565661
102	0x3be0e3c2	0.0068630883
103	0x3dafcbdc	0.08583805
104	0x3e103c0b	0.14085405
105	0x3d911f76	0.07086079
106	0xbe3ac96e	-0.18240902
107	0x3e1bd2a2	0.15217069
108	0x3e8a569a	0.27019197
109	0x3d885162	0.066561475
110	0xbe1592cf	-0.14606784
111	0xbec3116a	-0.38099223
112	0x3edb94e1	0.42887023
113	0x3d8d0d39	0.06887288
114	0xbe2fb9f5	-0.1716078
115	0xbe9450c2	-0.28967863
116	0x3ec6b9e5	0.388137
117	0x3e3e611e	0.18591735
118	0x3ebe96e0	0.37224483
119	0xbdbaa833	-0.09114113
120	0xbe5a4361	-0.21314766
121	0x3c702fda	0.014659846
122	0x3a60d2d1	0.0008576336
123	0xbef53476	-0.47891587
124	0xbd408cd9	-0.047009323
125	0x3f262d53	0.6491291
126	0x3ecdb5b9	0.40177706
127	0xbe6e4b64	-0.23270947
128	0x3e91c195	0.28468004
129	0x3eabc2f0	0.33547163
130	0xbeb6e1ad	-0.35719052
131	0x3e5bfa47	0.21482192
132	0xbec37efb	-0.38182816
133	0xbe0ea440	-0.13929844
134	0x3e510939	0.20413674
135	0xbf2440bb	-0.6416127
136	0xbe1ef5ba	-0.15523425
137	0xbee8c287	-0.45460913
138	0x3eba7e5d	0.36424533
139	0x3eb99468	0.36246037
140	0x3e8acb9f	0.27108476
141	0x3edeb2be	0.43495744
142	0x3d2b1318	0.041766256
143	0x3e95308b	0.29138598
144	0x3ea2b48a	0.31778365
145	0x3c6c3b3e	0.014418421
146	0x3e37773a	0.17916575
147	0xbd939235	-0.07205621
148	0x3e697d74	0.22801763
149	0x3e1208e5	0.14261205
150	0xbeb5b58c	-0.35490072
151	0xbb43c70b	-0.0029873278
152	0xbe4743ca	-0.19459453
153	0x3e6968e7	0.22793923
154	0xbe89d526	-0.26920432
155	0x3e6d0ad3	0.2314866
156	0xbcdbc9b3	-0.026829576
157	0x3d145110	0.03621012
158	0xbe1f2429	-0.15541138
159	0xbde0ce55	-0.10976855
160	0x3ea8c66c	0.32963884
161	0x3de37658	0.11106557
162	0xbddcfea9	-0.1079076
163	0x3e95dd90	0.292706
164	0xbe66f8e0	-0.22555876
165	0x3c6e0e39	0.014529758
166	0xbe148e09	-0.14507307
167	0x3d1456c2	0.03621555
168	0xbe49fe53	-0.19725923
169	0x3dff52a3	0.124669336
170	0x3a422d4a	0.00074072613
171	0x3e781b7c	0.24229234
172	0x3e5a8b4a	0.21342197
173	0x3dea9bed	0.11455522
174	0x3e225625	0.15853174
175	0xbe5d33d8	-0.21601808
176	0xbd28ba3d	-0.041193236
177	0x3b821bf3	0.003970617
178	0x3e20a2b9	0.15687074
179	0x3e05ece7	0.13078652
180	0xbacbb33d	-0.0015541088
181	0x3e90017e	0.28126138
182	0x3dcf8eb3	0.101346396
183	0xbcbe37c3	-0.023219949
184	0x3e2a0376	0.16602883
185	0x3e74c32c	0.23902577
186	0xbe65ae15	-0.22429688
187	0x3e3a8c1a	0.18217507
188	0xbe94adbd	-0.29038802
189	0xbe84f0c2	-0.25964934
190	0x3e15d649	0.14632525
191	0xbcea12c2	-0.028573398
192	0xbec0a8b2	-0.37628704
193	0x3e8f87d3	0.28033313
194	0xbc845375	-0.016153077
195	0xbd9cc0da	-0.07653971
196	0x3d8900e9	0.06689627
197	0x3e1b8469	0.15187229
198	0xbee64d43	-0.4498082
199	0xbdbb0515	-0.09131829
200	0x3e24d93c	0.16098493
201	0x3eac0ce6	0.3360359
202	0x3e3cffc6	0.18456945
203	0xbcbd9cb7	-0.023146017
204	0xbe0a635c	-0.13514465
205	0xbe530101	-0.20605852
206	0xbe372be2	-0.17887834
207	0xbedd367f	-0.4320564
208	0x3f447160	0.76735497
209	0x3e92bf95	0.2866179
210	0xbd171d68	-0.03689328
211	0xba3dfbd9	-0.0007247306
212	0x3ece2a0a	0.40266448
213	0x3d3199a4	0.043359414
214	0xbdd28cce	-0.102807626
215	0xbf1114f0	-0.56672573
216	0x3e82ece6	0.25571364
217	0xbe04566d	-0.12923594
218	0xbdf32b33	-0.11873474
219	0xbc2285ba	-0.009919578
220	0x3c3b69e6	0.011438822
221	0x3ced482b	0.028965076
222	0xbf051e4b	-0.5199935
223	0x3da718ef	0.081590526
224	0x3db652a2	0.0890248
225	0x3daf6755	0.08564631
226	0xbe12ecc4	-0.14348131
227	0x3da83878	0.082138956
228	0xbcf5a788	-0.029987112
229	0xbdba9aa7	-0.09111529
230	0x3e0d07ba	0.13772479
231	0x3ea1822c	0.31544626
232	0xbd79a766	-0.06095066
233	0xbe99c12b	-0.30030188
234	0xbd2f0d7c	-0.04273747
235	0x3daa71b2	0.08322467
236	0xbe32c534	-0.1745804
237	0xbf572ad7	-0.84049743
238	0x3e0f0b41	0.13969137
239	0x3c20c86a	0.009813407
240	0x3eb6b6ba	0.35686284
241	0xbe9dd420	-0.308259
242	0xbe988f90	-0.2979703
243	0x3ea581f4	0.3232571
244	0x3f2e7cff	0.6815948
245	0x3e97bad6	0.29634732
246	0xbd416ab7	-0.04722091
247	0x3e7c9916	0.24667773
248	0x3e85a681	0.26103595
249	0x3e8f6676	0.2800786
250	0x3e3602b7	0.17774473
251	0xbf120abc	-0.5704763
252	0xbdeb86f2	-0.11500348
253	0x3d8cee0a	0.0688134
254	0xbe49d7e0	-0.19711256
255	0xbe38f76f	-0.18063138

network_body._body_endoder.seq_layers.2.bias f4 [128]
0	0x3d1138eb	0.03545467
1	0x3cd3e827	0.025867535
2	0xbbad0778	-0.0052804314
3	0xbc121fe3	-0.008918735
4	0xbc2c6586	-0.010522252
5	0x3bd5126a	0.0065024393
6	0x3c99fe12	0.018797908
7	0xbcaa5300	-0.02079153
8	0xbc07350d	-0.008252394
9	0x3cf5b999	0.029995726
10	0x3afb1896	0.0019157107
11	0x3cf75ee3	0.030196613
12	0x3cf60986	0.030033838
13	0x3cde1675	0.027110318
14	0xbc5f9500	-0.013646364
15	0x3d523535	0.051320273
16	0x3cb0d362	0.02158517
17	0xbd18119b	-0.037126165
18	0xbc6985c5	-0.014253085
19	0x3d088679	0.033331368
20	0xbb16dc1e	-0.0023019384
21	0x3d0ec402	0.034854896
22	0xbb9ccdd6	-0.0047852797
23	0x3b1d1574	0.0023969086
24	0x3d11c477	0.035587754
25	0xbbad3952	-0.005286374
26	0x3d0c79b2	0.034295745
27	0x3ce6850d	0.028139615
28	0x3c262b28	0.010142125
29	0x3d457adf	0.048212882
30	0x3d04d016	0.03242501
31	0x3d6e6560	0.058202147
32	0x3c9c43fd	0.019075388
33	0xbbfd1022	-0.0077228704
34	0xbc966916	-0.018360656
35	0x3d0d388b	0.03447775
36	0x3a00c863	0.00049126724
37	0xbc0c9258	-0.008579813
38	0xbc96e301	-0.01841879
39	0x3b88b05b	0.004171414
40	0x3d19d5c3	0.037557375
41	0x3a1f40a9	0.0006075004
42	0x3cf13a50	0.02944675
43	0x3d2cdbe9	0.04220191
44	0x3d110221	0.03540242
45	0xbca5b6f9	-0.02022885
46	0xbb4cb149	-0.00312336
47	0x3d029647	0.031881597
48	0x3ca1c1ea	0.019745786
49	0xbbf58917	-0.007493149
50	0x3c8df5ce	0.017329123
51	0x3c456f03	0.012050393
52	0xbb2f883f	-0.002678409
53	0x3cdb0bea	0.02673908
54	0xbc1537e2	-0.009107562
55	0x3c809ae7	0.015698863
56	0xbb5d39f5	-0.003375647
57	0x3c50b4ce	0.01273842
58	0x3ce7b264	0.028283305
59	0x3d09cc0c	0.03364186
60	0x3c80d8e4	0.015728422
61	0x3c8f4674	0.01748965
62	0x3a46a223	0.0007577261
63	0xbc36b8e4	-0.01115248
64	0x3d19e661	0.037573222
65	0xbc8bd164	-0.017067619
66	0x3d3d6a98	0.046244234
67	0x3cbf7ac9	0.023373978
68	0x3d059aba	0.032618262
69	0x3ccb54e1	0.024820747
70	0x3cc94fd5	0.0245742
71	0x3c1c1c08	0.009528168
72	0x3c5fb02b	0.013652842
73	0x3d031e3f	0.032011267
74	0xbc76fd71	-0.015075074
75	0x3d0addd3	0.033902954
76	0x3cac7ce2	0.021055643
77	0x3c524646	0.012834137
78	0x3d0a485c	0.033760414
79	0x3cfd0140	0.030884385
80	0x3d062f8b	0.032760184
81	0x3ce9694a	0.028492589
82	0x3cceda87	0.025250686
83	0x3bb29559	0.0054499325
84	0x3cf2499b	0.029576113
85	0x3c156c64	0.009120081
86	0x3d2592eb	0.040423315
87	0x3d0ea6c3	0.034827005
88	0x3d04e335	0.032443244
89	0xbbf31910	-0.007418759
90	0xbcfe14ce	-0.03101578
91	0x3d06658e	0.032811694
92	0x3d0ec322	0.034854062
93	0x3d134c7e	0.03596162
94	0x3d6aaac3	0.057291757
95	0x3d054fc9	0.032546792
96	0x3d1d6111	0.038422648
97	0xbc235fe6	-0.009971594
98	0xbc81e0fa	-0.015854347
99	0x3cb6379a	0.02224331
100	0x3d0cceb4	0.034376815
101	0x3ced156d	0.02894088
102	0xbc8e255f	-0.017351804
103	0x3cf615bc	0.03003966
104	0xbc4eeb94	-0.012629408
105	0x3d0ea18b	0.034822028
106	0xbbd72d59	-0.006566685
107	0xbbf891c2	-0.007585735
108	0x3cdf0df0	0.027228326
109	0x3be36997	0.0069400775
110	0x3cf777a5	0.030208418
111	0x3c2a97f7	0.010412208
112	0x3c7767b1	0.015100406
113	0xbc58a802	-0.01322365
114	0x3b0c87f5	0.0021443341
115	0x3c9c315e	0.019066509
116	0x3d1ac37c	0.037784085
117	0x3b9fb99f	0.0048744227
118	0x3d089487	0.03334477
119	0x3d03b80f	0.032157954
120	0x3c0c8199	0.00857582
121	0x3ce895bf	0.028391717
122	0x3cb16f03	0.02165938
123	0xb989b68d	-0.00026266687
124	0xbb5fe889	-0.0034165701
125	0x3cc41a98	0.023938462
126	0x3b08db29	0.0020882583
127	0x3cc41c17	0.023939176

network_body._body_endoder.seq_layers.2.weight f4 [128, 128]
0	0x3d0db6f7	0.034598317
1	0xbcaaffa8	-0.02087386
2	0xbe227e65	-0.15868528
3	0x3c4e1cf5	0.012580146
4	0x3d4a0bbf	0.04932761
5	0xbdef343d	-0.116798855
6	0x3d9357c8	0.07194477
7	0x3da9e734	0.082960516
8	0xbdd61b8e	-0.104544744
9	0xbd03e204	-0.032197967
10	0x3c41ce65	0.011828993
11	0x3d905679	0.07047743
12	0xbe42945b	-0.19001906
13	0xbca9b276	-0.02071498
14	0x3d8076e4	0.062726766
15	0x3dec0a72	0.1152543
16	0xbd2c3934	-0.04204674
17	0x3cff33b9	0.031152593
18	0x3dd5928e	0.10428344
19	0xbd80276c	-0.06257519
20	0x3e66f327	0.22553693
21	0x3ddda8fd	0.108232476
22	0xbd9463fb	-0.07245632
23	0xbe4a0d72	-0.19731691
24	0x3db55359	0.08853788
25	0xbdb542cc	-0.08850631
26	0x3ddf2fd9	0.10897798
27	0x3dae3daa	0.08507855
28	0x3de2ddf1	0.11077488
29	0x3dd27229	0.102756806
30	0x3e2ea8c6	0.1705657
31	0xbdcda4c0	-0.10041189
32	0xbc1284d0	-0.008942798
33	0x3e848387	0.25881597
34	0x3e1a0f5e	0.15044925
35	0xbd15ad65	-0.036542315
36	0xbde0316a	-0.10946925
37	0xbba4489e	-0.0050135395
38	0x3e1932de	0.1496081
39	0x3e32e7cf	0.1747124
40	0x3da4cb11	0.08046544
41	0xbdcde5ff	-0.10053634
42	0xbd20b991	-0.03923947
43	0x3c539032	0.012912797
44	0x3e50660b	0.20351426
45	0xbe66a0de	-0.22522303
46	0xbd95f971	-0.07322968
47	0xbc8730e2	-0.016502801
48	0xbda59256	-0.08084552
49	0xbda0e642	-0.07856418
50	0xbe078430	-0.1323402
51	0x3d2d361e	0.04228794
52	0x3caeace9	0.021322684
53	0x3d9a6736	0.07539217
54	0xbdc46d14	-0.095911175
55	0x3d6e8644	0.058233514
56	0xbd2ca689	-0.042151008
57	0x3d2bb25b	0.04191814
58	0x3e2f01dc	0.17090553
59	0xbe57adf8	-0.21062458
60	0xbe12b8a4	-0.14328247
61	0xbd8bb6b5	-0.06821958
62	0xbd88ca54	-0.06679216
63	0xbda1ef0d	-0.079069234
64	0xbd2d5995	-0.04232176
65	0x3da5f09f	0.081025355
66	0xbd195b93	-0.037440848
67	0x3cbab5ff	0.02279186
68	0x3dbc24ff	0.09186744
69	0x3b63e23b	0.0034772295
70	0x3d7b6894	0.06137903
71	0xbd8f7d19	-0.07006282
72	0x3dc5e1aa	0.09662183
73	0x3d529bc9	0.0514181
74	0x3d3c8881	0.046028618
75	0x3b04e5d6	0.0020278594
76	0x3cb263e6	0.02177615
77	0x3d95b222	0.07309367
78	0xbc09bb94	-0.0084065385
79	0x3ca4e9f8	0.020131096
80	0xbde58daf	-0.112086646
81	0x3e080c9d	0.13286062
82	0xbdd9cc6f	-0.10634696
83	0x3dd43874	0.1036233
84	0x3d2eef2d	0.042708565
85	0xbdd29ae1	-0.10283447
86	0xba84ad9b	-0.0010122539
87	0x3c9239bf	0.017849801
88	0x3d89a836	0.06721537
89	0xbdf4e62f	-0.119579665
90	0xbe0a7b7b	-0.13523667
91	0xbe652b3a	-0.22379771
92	0xbea6e1f5	-0.32594267
93	0xbd0ce3b3	-0.03439684
94	0xbd3936b4	-0.045218185
95	0xbe778626	-0.24172267
96	0x3c729553	0.0148061095
97	0xbe1a3807	-0.15060435
98	0xbd48df89	-0.049041305
99	0xbc356f67	-0.011073924
100	0x3d2d4255	0.042299587
101	0xbbcb858e	-0.0062109893
102	0x3cf7fcae	0.030271854
103	0xbe0c3a01	-0.13694002
104	0x3d41db70	0.047328413
105	0x3ccf3347	0.025293006
106	0x3d89888e	0.06715499
107	0x3d496ddf	0.049177047
108	0xbc1e2b1e	-0.009653835
109	0xb9c90d95	-0.00038347827
110	0xbd38538b	-0.045001548
111	0xbc100052	-0.008789139
112	0x3e302ab2	0.17203787
113	0x3d4193e9	0.0472602
114	0x3d36b392	0.044604845
115	0xbdfa07a3	-0.12208488
116	0xbe043398	-0.12910306
117	0xbd80e8fc	-0.06294438
118	0xbe3ca63e	-0.18422791
119	0x3d1bea4c	0.03806524
120	0xbd68ee86	-0.0568681
121	0xbdd23252	-0.10263504
122	0x3d827d35	0.063715376
123	0xbd91d23b	-0.071201764
124	0x3d12766e	0.035757475
125	0x3e6432b4	0.22284967
126	0x3d3c6551	0.04599506
127	0xbdda253c	-0.10651633
128	0x3e17b833	0.1481636
129	0xbe409098	-0.18805158
130	0xbdcbcd22	-0.09951235
131	0xbe067dc6	-0.13133916
132	0x3d07f50a	0.03319267
133	0x3ba56b07	0.005048159
134	0xbd8fa664	-0.07014158
135	0xbe0d00b1	-0.13769795
136	0x3e022e9a	0.1271309
137	0xbd2a1ff2	-0.04153437
138	0x3e13adeb	0.14421813
139	0x3e2306bf	0.15920542
140	0x3d860782	0.06544401
141	0xbda09d97	-0.07842558
142	0xbcc650a1	-0.024208369
143	0xbe19fcf4	-0.150379
144	0xbb36772f	-0.0027842035
145	0xbd7c6ccb	-0.06162719
146	0xbd41d757	-0.047324505
147	0xbcd84fd0	-0.026405245
148	0xbd493b69	-0.049128924
149	0x3e3858eb	0.1800267
150	0x3da5426d	0.0806931
151	0xbe5c1127	-0.21490918
152	0xbc545af0	-0.012961134
153	0x3d81fd1b	0.06347104
154	0x3d9e9469	0.07743151
155	0x3d961b01	0.07329369
156	0x3c4e08af	0.0125753125
157	0xbe09b27a	-0.1344699
158	0x3e00c630	0.12575603
159	0xbc7c5607	-0.01540137
160	0x3d9cfd70	0.07665527
161	0x3d10340f	0.035205897
162	0x3de05341	0.109533794
163	0x3d2e9aa3	0.04262794
164	0xbd6da24a	-0.0580161
165	0x3d0da213	0.034578394
166	0xbc4b1dce	-0.012397243
167	0xbe4ae0f4	-0.19812375
168	0x3d685396	0.05672034
169	0xbd9ee314	-0.077581555
170	0x3d03132e	0.032000713
171	0xbddb0946	-0.10695128
172	0xbdc7bd60	-0.09752917
173	0xbdcd5a48	-0.100269854
174	0x3e23eb62	0.1600776
175	0x3d08177c	0.03322552
176	0x3c3696e3	0.011144373
177	0xbde9a6b1	-0.11408747
178	0x3e2b3b3f	0.1672182
179	0x3d70d5e6	0.05879774
180	0xbd80f804	-0.06297305
181	0x3e080d31	0.13286282
182	0xbe55568c	-0.20833796
183	0xbe0ca270	-0.1373384
184	0x3d899d01	0.06719399
185	0xbc7f8239	-0.015595012
186	0xbdb1a9d9	-0.08674974
187	0x3e1999a6	0.15000018
188	0x3cb9bf33	0.022674179
189	0xbd80e985	-0.0629454
190	0xbd707af0	-0.058710992
191	0xbe036777	-0.12832437
192	0xbd756922	-0.059914716
193	0x3c47243f	0.012154638
194	0xbe5c5a6d	-0.2151887
195	0x3a960260	0.00114448
196	0xbbed3f14	-0.0072401855
197	0xbdc7596d	-0.097338535
198	0xbd8a55ec	-0.067546695
199	0x3e25627d	0.16150852
200	0x3cafd9b6	0.021466117
201	0x3d2dbf42	0.042418726
202	0xbe43f483	-0.19136243
203	0xbe23adfa	-0.15984336
204	0xbd12d787	-0.035850074
205	0xbde9a283	-0.1140795
206	0x3c63b9eb	0.013899307
207	0x3b5dc2cf	0.0033838039
208	0xbe3ed74b	-0.18636815
209	0x3c6c6dec	0.014430504
210	0x3e861bd5	0.2619311
211	0xbd94c57f	-0.07264232
212	0xbe0393f9	-0.12849416
213	0xbd2d6d7b	-0.042340737
214	0xbc7a78a3	-0.015287551
215	0x3dce1881	0.100632675
216	0xbd38f685	-0.045156974
217	0x3d95300b	0.07284554
218	0xbe2e683f	-0.17031954
219	0xbe867df2	-0.26267964
220	0xbe04ff42	-0.12987998
221	0x3db1a2af	0.086736076
222	0x3d7d9fd2	0.061919995
223	0x3ddf66a2	0.109082475
224	0xbe02e44b	-0.127824
225	0xbe189326	-0.14899883
226	0xbdfdbb54	-0.12389246
227	0x3db0bb28	0.08629447
228	0x3dbbf537	0.091776304
229	0xbda35282	-0.079747215
230	0xbd58106c	-0.052750036
231	0xbe10ac0b	-0.14128129
232	0x3d6e787c	0.05822037
233	0xbc2ff92f	-0.010740562
234	0x3df3dc64	0.119072706
235	0x3db05e42	0.08611728
236	0xbda8f829	-0.08250458
237	0xbc264aab	-0.010149638
238	0x3df9134f	0.12161886
239	0x3c5f470f	0.0136277815
240	0xbd1d8635	-0.038458068
241	0x3db1378f	0.08653175
242	0x3d04d60b	0.03243069
243	0xbdb98994	-0.09059444
244	0xbdb75096	-0.089509174
245	0xbd971506	-0.07377057
246	0xbdd6cc1b	-0.10488149
247	0xbe137104	-0.14398581
248	0xbe09dfab	-0.13464229
249	0xbc5acdcc	-0.01335473
250	0xbd350a3c	-0.044199213
251	0x3d5f72a8	0.054552704
252	0xbdb9f547	-0.09079986
253	0xbc8e7871	-0.017391415
254	0xbd9b4c2d	-0.07582889
255	0x3d9b595e	0.07585405
