Assets/My Behavior-20000067.onnx (onnx, 88872 bytes, 9 tensors)

action_model._discrete_distribution.branches.0.bias f4 [16]
000000 bc c7 ab bd 26 4d 3a 3a 60 a1 dc 3c 9a 25 b6 bd
       -0.08387706 0.0007106833 0.026932418 -0.08893891
000010 69 c2 a1 bb 15 26 2c bc 85 ef 1c bd 3d dd 0a 3d
       -0.0049365056 -0.010507126 -0.03831436 0.033902396
000020 14 40 15 3e 18 89 79 3d fa a3 a5 bc 16 58 d2 3c
       0.14575225 0.06092176 -0.020219792 0.025676768
000030 e3 60 c9 3d d3 f5 f9 3b b9 a3 14 bd 48 bb 9f bd
       0.09832933 0.0076281815 -0.03628895 -0.07799393

action_model._discrete_distribution.branches.0.weight f4 [16, 128]
000000 c0 4b fc 3c f1 70 42 3d be 54 5a 3d ab e8 db 3d
       0.03079784 0.04747099 0.053303473 0.10737737
000010 d5 da 20 bd ac f2 a9 3e ad e3 22 3b f4 20 a9 3e
       -0.039271194 0.33192956 0.0024854944 0.33032954
000020 02 5b b8 3c ad 4a a4 bd f9 24 a9 3d 5e 7b 58 bd
       0.022504333 -0.08022056 0.08259005 -0.052852027
000030 c3 fc ed bb 61 e5 11 be 07 7f d1 3a 56 9f 48 3d
       -0.0072627976 -0.14247657 0.0015983292 0.04898008
000040 49 3a 1a bb 44 26 f6 bd 41 90 a1 bd c3 fb 6b bc
       -0.0023533276 -0.12019017 -0.078888424 -0.014403286
000050 0b 75 6e 3c 54 6a d4 3c 63 1b df 3d 41 c6 be bc
       0.014554272 0.025929607 0.108938955 -0.023287894
000060 ae 93 e3 bd fd 40 12 3d ec 41 6d bd 6b 9c a0 3e
       -0.11112152 0.03570651 -0.057924196 0.31369337
000070 6b 68 40 3d f8 ac 96 bc e4 61 41 bd 7b 3c cb bc
       0.04697458 -0.018393025 -0.047212496 -0.024809113
000080 00 ab b1 3d f4 da a1 3c 7e c6 a9 3d 10 b3 8c bd
       0.08675194 0.019757725 0.082898125 -0.06870091
000090 fc 65 96 3d 52 fd da 3d 9f c1 9f 3c 68 49 42 bd
       0.07343671 0.10692848 0.019501505 -0.047433287
0000a0 04 26 08 be 55 97 c8 bc c8 50 38 ba ef 74 d7 3d
       -0.13295752 -0.024486223 -0.00070310803 0.1052035
0000b0 39 e1 2e 3b f2 03 9a bd a9 8f 46 3e 3c 90 51 3e
       0.0026684536 -0.07520284 0.1939074 0.20465177
0000c0 54 1b a6 3c 82 69 45 bc 0f fd b9 3c 55 02 ba 3d
       0.020276703 -0.012049081 0.022703676 0.09082476
0000d0 a6 2e 4a 3c c0 10 a5 3e 03 80 e6 3b 0a 16 8b bb
       0.012340223 0.32239342 0.007034303 -0.0042445706
0000e0 5a cb 11 3a c2 8d 59 b9 23 4b 0b 3e 57 1d e9 bb
       0.0005561613 -0.00020747542 0.13602881 -0.0071140933
0000f0 ce 60 c5 bc 83 28 12 bd 59 51 95 3d 4c 8a 6e 3c
       -0.024094012 -0.035683166 0.072909065 0.01455934
000100 54 a3 e7 3d c3 47 0f 3e 66 f6 6b 3e 8c b3 c6 3d
       0.11310449 0.13992219 0.23043212 0.097022146
000110 4a b4 a2 bd 61 c9 2a 3d eb 15 a1 3d eb b4 36 3e
       -0.07944544 0.041695956 0.07865509 0.17842452
000120 b3 28 5e 3c 90 ff 46 3e 72 e4 de 3c 3d d1 13 39
       0.013559508 0.19433427 0.02720854 0.0001409696
000130 71 23 8f 3d 5d 90 df 3b af f3 08 3e 44 bf 3a bd
       0.06989182 0.0068226294 0.13374208 -0.04559256
000140 7d 70 3d 3d 20 84 73 bc 00 54 40 bd 79 85 07 3d
       0.046249855 -0.014863044 -0.04695511 0.033086274
000150 01 b2 56 3d 70 b5 1d 3e f7 aa aa 3e 06 7c 53 3e
       0.05241585 0.15401244 0.3333356 0.2065278
000160 bf d5 1f bb 5d 98 59 bd cb 2b e1 3c 39 de 5f 3d
       -0.0024388877 -0.05312382 0.027486702 0.054655287
000170 d7 69 c5 3c 16 db 33 bc a9 4b 01 bc 84 7e a6 bb
       0.02409832 -0.010977527 -0.007891574 -0.005081
000180 9f a5 a9 3d ba 58 90 bf b2 01 3a bc d5 12 cd 3d
       0.08283543 -1.1277077 -0.011352943 0.100133575
000190 52 10 80 3c 33 96 59 3d 63 35 ba 3e 16 82 0d 3e
       0.015632782 0.053121757 0.36368856 0.13819155
0001a0 85 6d d6 bd 97 c9 d4 3d 1f e7 cc 3b eb 77 03 bd
       -0.10470108 0.10390013 0.0062531377 -0.032096785
0001b0 3d bc 3d bd 0a e8 9c 3c d4 71 6a 3d a6 df 0f 3e
       -0.046322096 0.019153614 0.05723746 0.14050159
0001c0 e8 24 d6 3d 19 4f 23 bd 61 7e b4 bc cf d8 1a be
       0.10456258 -0.039870355 -0.022032918 -0.15121768
0001d0 d9 1d 66 3c 79 e6 5a 3e bd 5a 1a bd 73 f1 b0 ba
       0.014045202 0.21376981 -0.03768419 -0.0013499692
0001e0 0b f2 c7 3b d6 fd 4b bd 21 ac 91 bd 84 7c 3a 3e
       0.006101852 -0.049802624 -0.07112909 0.18211561
0001f0 c5 6d 39 3c 27 e3 00 3b ab 1a 80 3d fa 54 ad 3d
       0.011317675 0.0019666643 0.062550865 0.084634736
000200 6a 69 2f 3d b3 1d d7 3c f1 17 94 3d e0 79 ae ba
       0.04282514 0.026259279 0.07231129 -0.0013311468
000210 c9 ad 60 bc 67 23 31 3c d1 52 04 3d 03 72 69 bb
       -0.013713309 0.010811663 0.032305542 -0.0035620935
000220 20 d5 1b ba 63 33 2c bc b3 17 59 bf f5 c7 ee bb
       -0.0005944539 -0.010510298 -0.8480179 -0.0072870203
000230 ca 23 05 3c f3 91 8c bc 10 7f b0 3c 11 5c 1a bd
       0.008126209 -0.017159438 0.021544963 -0.037685458
000240 1f 85 9c 3c 66 e7 cf 3c 5a 4c 32 3d df 7f ae 3b
       0.019106446 0.025378894 0.043529846 0.005325302
000250 6f 3b 60 3d 6e 8b 14 bc 5f b6 89 3b 9a 23 a9 bc
       0.05474418 -0.009066446 0.0042026485 -0.020646859
000260 d1 85 71 3b 3a 24 ac bc 64 72 d4 3c 06 ac e3 3b
       0.0036853442 -0.021013368 0.025933452 0.006947997
000270 27 67 d8 3d ba c3 c9 3b da 9a 1e 3c ed 0d a5 3c
       0.1056655 0.0061573656 0.009680474 0.020148242
000280 fa e4 bf 3c 4a 50 e6 3c de 3c 47 ba 50 4a ae ba
       0.023424614 0.028114457 -0.00076003175 -0.0013297293
000290 43 34 14 bd 27 15 f6 3d 72 c7 2d 3c 2f 09 f6 3c
       -0.036182653 0.12015753 0.0106066335 0.030033676
0002a0 5c 1f cb 3a a5 84 f4 3b 42 41 56 3c 1a 66 43 3d
       0.0015497017 0.0074621015 0.013077082 0.047704794
0002b0 6e 06 47 bc fb c9 7a 3c 97 7b 55 3d 92 df c4 3d
       -0.012147529 0.015306945 0.052119818 0.09612955
0002c0 e6 8a 9b 3d c6 5d 1a 3b bd 8a 18 bb cd f5 c4 bc
       0.07594852 0.0023554428 -0.0023276054 -0.024042988
0002d0 bd 5b c7 bc 49 aa 94 bb d2 2c 5a 3d 34 08 6c 3b
       -0.024335736 -0.004536901 0.0532654 0.0036015632
0002e0 d7 5b bd 3c b6 4b 89 3d 87 43 20 3d 7a e3 ac bb
       0.023115082 0.06703894 0.0391269 -0.0052761408
0002f0 e5 91 8f bc 48 da c7 3c d0 d3 1f 3e ce 38 f4 3c
       -0.017525623 0.024396077 0.15608144 0.029812243
000300 cb cd 76 bf f8 75 0e bc cb 83 58 bc 3c 16 9c 3d
       -0.96407765 -0.008695118 -0.013215016 0.07621428
000310 54 db c4 3c b8 0f c3 3d d1 d5 3f bf 90 98 09 3d
       0.024030365 0.095244825 -0.7493563 0.03359276
000320 0c 81 91 3d 6e 60 8d bb 99 ed 11 bc 70 36 70 3d
       0.07104692 -0.004314474 -0.008906745 0.058645666
000330 35 b6 49 3c 8b c2 ec bb ff d5 41 bd 4a 3d 81 bd
       0.012311508 -0.0072253398 -0.047323223 -0.06310518
000340 38 3a 69 3d 5b a3 0e 3d 6b f2 4f 3a 7e 8a 6b 3c
       0.056940287 0.034823757 0.00079325464 0.014376281
000350 3a 9d a6 3d 66 b5 37 3d ed f2 5b bb c2 5f 66 3d
       0.08135457 0.04485073 -0.0033561543 0.056243666
000360 17 fc 08 3d ca 08 13 bd 46 19 b2 bc 81 33 92 3d
       0.033443537 -0.035897054 -0.021740567 0.0713873
000370 65 10 8c 3d d7 eb 4b 3c 60 d4 21 bc 08 72 aa 3b
       0.068390645 0.012446365 -0.009877294 0.005201582
000380 40 d0 97 3d 94 2f 57 3d 2e 98 02 bb 93 4c 8a bd
       0.074127674 0.05253561 -0.0019927132 -0.067528866
000390 b0 eb 83 3b 69 54 ea 3c 28 09 f6 3b f0 68 82 bc
       0.004025899 0.028604703 0.0075084157 -0.015919179
0003a0 2f 68 f0 ba 9c 36 2b 3d fb c3 48 3d e1 08 35 b9
       -0.0018341596 0.041800126 0.049015027 -0.00017264813
0003b0 f2 fc c3 bc 11 13 9e 3c fb b4 80 ba c9 fb b2 3d
       -0.023924325 0.019296201 -0.0009819561 0.087394305
0003c0 fe 88 d9 3c 10 4a 8f bb 13 ea d5 3b 25 a5 3f bd
       0.02655458 -0.0043728426 0.006528148 -0.046788353
0003d0 26 29 a2 3d 0c f0 47 3d 87 7c 86 3b 3b b0 a8 3c
       0.07918005 0.04881291 0.0041042003 0.020591846
0003e0 f0 98 e7 3c 94 50 83 bc b8 98 2e bc df fd 9a 3b
       0.028271168 -0.016029634 -0.010656528 0.004729971
0003f0 f7 25 4c 3d da 84 99 bc 41 0e 48 3d 2c 0c cf 3c
       0.049840894 -0.018740106 0.04884172 0.025274359

action_model._discrete_distribution.branches.1.bias f4 [4]
000000 50 6a ad bc ae 27 8e bc e6 fd 27 3c 5a 19 35 3c
       -0.021168858 -0.017352905 0.010253405 0.011053408

action_model._discrete_distribution.branches.1.weight f4 [4, 128]
000000 f9 1f 39 3d 48 8a 40 3d f2 7b 71 bc 7d d4 a2 bc
       0.045196507 0.047006875 -0.0147390235 -0.019876713
000010 5a cb fd bc 46 61 f3 3c 1f ad f8 3c a2 23 e0 3c
       -0.030980755 0.02970947 0.030355988 0.027360741
000020 89 83 58 3d 9b 73 77 bc b7 35 99 3c f8 97 56 bd
       0.052859817 -0.015103246 0.018702371 -0.052391022
000030 54 e7 1b bc 36 94 cd bc 17 d5 99 3d a3 12 1d bd
       -0.009515602 -0.025095087 0.07511347 -0.03834785
000040 b1 73 18 bd bd 65 20 bc fc 7c 48 3d 6d f7 5a bd
       -0.037219707 -0.009789881 0.04894732 -0.05345862
000050 76 2b 82 3c 71 9c 1d bd 78 3f a9 bc 91 32 53 bd
       0.015889864 -0.038479272 -0.020660147 -0.051561896
000060 ad c4 d3 bc f3 80 a9 bc c0 c3 f3 bc 3e 3a c2 3c
       -0.025850618 -0.02069137 -0.029756427 0.023709413
000070 8c ea 5a 3d 2f aa 85 bd d1 e3 41 bd 66 69 83 3d
       0.053446338 -0.065266006 -0.047336403 0.064165875
000080 26 8d 1e bd ae a5 81 3c 7c 17 03 bd 3a e7 d8 ba
       -0.03870883 0.015826073 -0.03200482 -0.0016548403
000090 81 63 d9 bc 00 af 46 3d b6 09 60 3d ee 83 3a bd
       -0.026536705 0.048506737 0.05469676 -0.045535974
0000a0 c3 1e 2d bd ed 3f 91 3d 98 51 95 3d 1f 60 0b ba
       -0.042265665 0.07092271 0.072909534 -0.00053167524
0000b0 7f 44 43 bd 8f 1c 24 bd 1d b8 09 3d 8d 24 6a 39
       -0.047672745 -0.040066298 0.03362285 0.00022329595
0000c0 da 15 08 3d 6f cd 02 bd 9b 6d b0 bc 56 e6 0b bd
       0.033223964 -0.031934198 -0.021536639 -0.034155212
0000d0 5c 78 83 bd d4 ca c4 3c 3b 8d d0 3d 48 ff 8a bc
       -0.06419441 0.024022497 0.101831876 -0.01696743
0000e0 c5 fc 71 bd 8a 49 e5 3d ce f8 d8 3b 12 d7 74 bc
       -0.05907895 0.11195667 0.0066214567 -0.014943855
0000f0 f0 83 4a bd 24 3c c2 3d 19 5c 8b 3d 0f e1 86 3c
       -0.04944223 0.09484127 0.068046756 0.016464738
000100 32 a9 65 3d 55 24 69 3d b0 be b0 3c 06 f4 93 3d
       0.05606956 0.056919415 0.021575302 0.07224278
000110 2c cd 1e bc 15 47 3c bc 26 f6 a5 bc db 4c 85 3c
       -0.0096924715 -0.011491557 -0.020258974 0.016272
000120 6b a0 36 3b 6a 39 a9 3d c9 a6 0b bc cc 60 73 3d
       0.0027866613 0.08262904 -0.008523651 0.059418485
000130 bd f2 44 bd 5f da 72 bd 2f e8 03 bc a9 a3 6e bd
       -0.048083056 -0.059290286 -0.008050962 -0.058261547
000140 cd 4b 07 3c d9 e9 55 3c 81 86 1e bd 23 76 8c 3d
       0.008257818 0.013056242 -0.03870249 0.0685847
000150 90 46 75 3d 17 84 c9 3d 1b 1a 39 3d a8 15 88 3d
       0.059881747 0.09839647 0.04519091 0.066447556
000160 64 ea 48 bd 84 4b 2d bd ce cf 9a 3b 50 74 a6 3d
       -0.049051657 -0.042308345 0.0047244793 0.081276536
000170 88 f5 2e 3d 6d 68 2e bd cf 18 04 bd 6e bb 58 bd
       0.042714626 -0.042580057 -0.03225022 -0.052913122
000180 d1 bd a2 3c 65 7f 0d 3c 08 7f 4e bd 67 6a da bc
       0.019865902 0.00863633 -0.050414115 -0.026662065
000190 6c ca 14 bd 46 58 3c bd 2e c0 86 3c 5d 25 77 bd
       -0.036325857 -0.04598262 0.01644906 -0.060338367
0001a0 32 3b 02 bd bd 4c 42 3d 5f 78 54 3c c5 4d 55 bd
       -0.031794734 0.047436465 0.012968152 -0.05207612
0001b0 7d 24 25 bc 06 7c 7b bd dd 32 79 bc d1 f6 8b 3b
       -0.0100795 -0.061397575 -0.015209881 0.004271366
0001c0 57 18 53 3c 30 3d 67 bd ca 1b 77 3b ec bb 48 bd
       0.012884221 -0.056454837 0.0037705773 -0.04900734
0001d0 4b b5 01 3e c6 bc bb 3d 7c aa 6a bd 60 7f 54 bd
       0.12666814 0.09166865 -0.057291493 -0.051879287
0001e0 25 bc 6c ba 87 78 2b bd 52 0a 2b bd c2 90 0a 3d
       -0.0009030721 -0.04186299 -0.04175789 0.033829458
0001f0 bd 01 3e 3c 88 7a 76 bd 1b aa 8d 3d 36 aa ea 3c
       0.011597094 -0.06017545 0.06917211 0.028645616
000200 b1 a6 9c 3d 64 bb a9 3d 94 ec c7 3c dd c5 63 bd
       0.07648981 0.08287695 0.024404801 -0.05560862
000210 e4 4e 19 bd 93 07 e2 3c b7 2b 53 3d 57 e7 a2 3c
       -0.03742875 0.027591502 0.05155536 0.019885702
000220 81 86 d0 3d db 67 a9 bc 52 79 14 3d 81 a9 5a bd
       0.101819046 -0.020679405 0.036248513 -0.053384308
000230 86 37 24 bd b5 6e cd bc c4 ff ca 3d cf a8 03 bb
       -0.040092014 -0.025077203 0.09912065 -0.0020089631
000240 b7 89 29 bd 42 4d ec bc ce 9c d9 3d 44 4f 3b bd
       -0.0413911 -0.028845433 0.10625611 -0.04572989
000250 8f 14 8c 3c 5a 65 f9 bb 1f e5 13 bd 0b 82 7a bd
       0.017099647 -0.007610959 -0.03610718 -0.061159175
000260 af 5b 8d bc 1c c3 42 bd ee c5 ff 3b a2 d2 9f 3b
       -0.017255632 -0.047549352 0.0078055775 0.0048774043
000270 46 ff bc 3d f3 7f 27 bb 9b 82 59 bd 18 c3 42 3d
       0.09228377 -0.0025558441 -0.05310307 0.047549337
000280 ab 06 21 bd 56 b7 23 3c e4 b3 7f 3a e5 02 1b bb
       -0.039313 0.009992441 0.0009754284 -0.0023652848
000290 f1 3f 1f bd 79 bd d9 3d fe d9 c9 3c 2a 16 b3 bc
       -0.03887934 0.10631842 0.02464008 -0.021861155
0002a0 f0 48 66 bd ba 79 a4 3d 15 f4 a1 3d a6 2c 1f 3b
       -0.056221902 0.0803103 0.07907883 0.0024288087
0002b0 db df 05 bd d6 44 59 bd 8d ab 0e 3c d7 ad 76 bc
       -0.03268419 -0.053044163 0.008707893 -0.015056095
0002c0 2c 51 77 3c ae 71 f0 bc 36 9c 47 bd 9e ae df bc
       0.0150950365 -0.029351082 -0.04873296 -0.027304944
0002d0 e2 ac 57 bd 1d c1 62 3c 72 07 8d 3d 04 92 04 bd
       -0.05265511 0.013839987 0.06886186 -0.032365814
0002e0 49 ac 85 bd 6d f6 8f 3d 28 f1 d5 3b 0b b3 50 bd
       -0.065270014 0.07029424 0.006528992 -0.050952
0002f0 de 6c 4c bd 6b a9 8a 3d d3 de c5 3d 31 2a 0a bc
       -0.04990851 0.06770595 0.09661641 -0.008432911
000300 4e 86 88 3d f5 2d dd 3c bf 71 72 3c 2a e5 4b 3d
       0.066662416 0.026999453 0.014797627 0.049779095
000310 9a a5 e2 bc 7e 90 87 bb 7e ba 50 3b 07 56 86 3d
       -0.027666856 -0.004137098 0.003184944 0.06559377
000320 62 73 d0 bc 07 a7 9a 3d fa 10 8b bd dd 63 d5 3d
       -0.025445644 0.07551389 -0.067903474 0.10419438
000330 d2 ea 32 bd 39 54 fb bc c3 1c 98 bc 16 66 23 bd
       -0.043680973 -0.030679809 -0.018568402 -0.03989228
000340 4b d7 e6 3d 56 34 6e 3d fd cb 1e bd 21 b6 e9 3d
       0.112715326 0.05815538 -0.038768757 0.114116915
000350 48 a6 f0 3c 26 0f 20 3d 07 13 21 3d 8a ea d8 3d
       0.029376164 0.039076947 0.039324787 0.1059161
000360 f6 67 5e bd 19 53 2d 3b e6 60 c6 bb 9b af 1a 3d
       -0.054298364 0.0026447235 -0.0060540317 0.037765127
000370 43 03 49 3d 5f 81 1e bd e4 a6 4d bd 36 e8 70 bd
       0.049075376 -0.038697597 -0.050207987 -0.058815204
000380 32 f9 29 bc 7a 02 1d 3c c2 c6 4c bd 26 e0 81 bc
       -0.010374354 0.00958311 -0.049994238 -0.015853953
000390 25 25 d5 bc 55 00 2a bd 7f af 1e 3c f6 a8 2f bd
       -0.026018688 -0.041504223 0.009685396 -0.042885743
0003a0 a3 b2 43 bd df 83 24 3d b5 27 07 3e 4d 78 22 bd
       -0.047777783 0.040164825 0.13198741 -0.03966551
0003b0 fb 23 4b bd de 88 a9 bd 91 e8 6b bd 30 48 78 3c
       -0.04959486 -0.082780585 -0.05759484 0.01515393
0003c0 b0 98 19 3c 8c 2f 2a bd 0f e7 40 bd 54 d1 7f bd
       0.009374782 -0.04154925 -0.047095355 -0.06245549
0003d0 8c 31 a5 3d 92 b1 a0 3d 8a c6 ad bc 96 3a 0d bd
       0.08066091 0.07846369 -0.021212835 -0.0344797
0003e0 93 b2 e4 ba aa 22 fd bb 9b 38 25 bd ed c5 6a 3c
       -0.0017448239 -0.0077250795 -0.040337186 0.014329416
0003f0 9b 66 55 3c 64 e8 5f bd 5b f5 14 3d f0 5a 2c 3d
       0.013024951 -0.054664984 0.0363668 0.042078912

discrete_action_output_shape f4 [1, 2]
000000 00 00 80 41 00 00 80 40
       16.0 4.0

network_body._body_endoder.seq_layers.0.bias f4 [128]
000000 77 b1 cd 3d 86 00 27 3e b5 10 07 3e 93 a7 6d 3d
       0.10043614 0.16308793 0.13189967 0.05802114
000010 1c 38 84 3e 20 90 32 3d 16 9b 4a 3e 22 97 a4 3e
       0.25824058 0.04359448 0.19785723 0.32146555
000020 2e 91 78 3e 4f 13 0d 3e 4a fd a2 3d 59 2b 74 3e
       0.24274132 0.13776897 0.07958467 0.23844661
000030 83 f7 0b 3d 6b fb 20 3d d6 47 ae 3d 23 8f a8 3b
       0.034171592 0.03930227 0.08509795 0.0051440164
000040 8e 38 cb 3e 58 7e 26 3e 9c 6f 91 3d b3 67 c9 bd
       0.39691585 0.16259134 0.07101366 -0.09834232
000050 79 e6 7e 3e 0c 16 37 3d de 6d df 3d f5 d1 d1 bc
       0.24892606 0.04469876 0.109096274 -0.02561281
000060 22 59 a1 3e df c2 28 3d 5d 75 2c 3d 34 18 09 3e
       0.31513315 0.04120147 0.042104114 0.13388139
000070 dd e1 81 3e 9c bf 94 3e ca 0a 4d 3d da d2 31 3e
       0.25367633 0.29052436 0.050059117 0.1736559
000080 c2 c0 51 3d 56 a7 27 3b de c0 06 3d 5f cf b0 3c
       0.05120922 0.0025581918 0.032898776 0.021583257
000090 78 10 6e 3d a8 39 de bc 5b cd 2f 3e e5 9b 9c 3e
       0.058121175 -0.027127102 0.1716818 0.30587688
0000a0 16 da 9d 3e 04 2c a2 3c 1c 11 a3 3e 59 e2 b6 3d
       0.3083045 0.019796379 0.3184899 0.08929891
0000b0 93 bf 6f bd 92 12 2a 3e ba 54 26 3e f7 6a cd bc
       -0.05853231 0.16608647 0.16243258 -0.025075419
0000c0 53 f6 be 3d 6f 94 4c 3e bb 52 3a 3e 16 a9 88 3e
       0.09324326 0.19978498 0.18195622 0.26691502
0000d0 20 45 94 3e 2c 98 3d 3e cb bb 94 3d 1f 76 b0 3d
       0.28958988 0.1851508 0.07262381 0.0861628
0000e0 e9 ba ba 3d e8 f4 8d 3d f2 38 b9 3d f1 84 83 3e
       0.091176815 0.06931478 0.090440646 0.25687364
0000f0 21 da 8d 3e ef 1a 43 3e 37 d9 d9 3d 03 0f 71 bd
       0.27705482 0.19053243 0.106371336 -0.058852207
000100 6b f9 9c 3e 6f d4 6f 3d 38 ac 16 3d ae b0 3e 3d
       0.3065904 0.0585522 0.036785334 0.046555214
000110 35 a1 0f 3e f3 7e 1d 3e 2c ce 14 3e 7d 6a 75 3e
       0.1402634 0.15380459 0.14531773 0.23966403
000120 e9 6c dc 3d c5 a2 08 3e 5d 98 4f 3e 0d 3a bd 3d
       0.107629605 0.13343342 0.20272966 0.09239588
000130 b1 37 ab 3e ab 5a 52 3d 7f 23 fc 3d 11 70 c1 3c
       0.33440927 0.051356 0.12311458 0.023613008
000140 a0 0c a7 bb 47 cc 96 3d 1f 78 ba 3d 7e 5d c9 bd
       -0.0050979406 0.073631816 0.091049425 -0.09832285
000150 16 b5 38 3d b1 05 a9 3d 0e 5a 4e 3c b5 e8 63 bd
       0.045094572 0.08253039 0.012594713 -0.05564185
000160 c4 eb 31 bc 48 6d 9a 3d d7 f5 b7 3d a6 22 01 3e
       -0.010859434 0.07540375 0.08982437 0.12610874
000170 57 2f c1 3e 69 6d a9 bd 45 72 2a 3d 2c 4d 82 3e
       0.3773143 -0.082728215 0.041612882 0.25449502
000180 c2 61 90 3e 1c b1 86 3d 38 e5 0a be 45 f4 17 3e
       0.28199583 0.0657675 -0.13564003 0.14839275
000190 ec 5c 5f bd a2 73 b2 3d a9 33 e1 3d 98 cc 2e 3e
       -0.054531977 0.087134615 0.109961815 0.17070234
0001a0 69 34 6c 3d cd fb 92 3d 69 c3 8f 3d 6f 9f 75 3d
       0.05766717 0.071769334 0.070196934 0.0599665
0001b0 12 8a 10 3e b5 8e 34 bd 2b 73 37 3e 53 fa 67 3e
       0.1411517 -0.04408141 0.17915027 0.22654085
0001c0 46 c7 25 bd e8 af c8 3d 94 80 4a 3e 32 b9 79 3d
       -0.040473245 0.097991765 0.19775611 0.06096763
0001d0 b9 61 fd 3d 3e 23 88 3e f5 07 43 3e 6d 56 74 3e
       0.12372155 0.26589388 0.19046004 0.23861094
0001e0 06 7f 40 3e 61 da 50 bd 69 21 74 bb 8c a0 84 3e
       0.18798456 -0.050989512 -0.003725136 0.25903738
0001f0 a8 d6 89 3d b4 4f 75 3e f0 a6 19 3e e3 1b 6e 3d
       0.067303956 0.23956186 0.15005088 0.058132064

network_body._body_endoder.seq_layers.0.weight f4 [128, 18]
000000 95 53 94 ba 50 43 9a 3e b8 f6 14 be dc 61 eb 3d
       -0.0011316413 0.3012948 -0.1454724 0.114932746
000010 95 a0 28 3f 88 33 18 3e bb cd 94 be d7 4d 7e 3e
       0.6587003 0.14863408 -0.2906321 0.24834381
000020 cf d2 4b 3d cd ea 31 3f ed 4c c3 3d f8 27 9c bd
       0.04976159 0.694989 0.09536157 -0.07624811
000030 d0 65 a7 3e 42 40 6c 3e 71 91 b7 be d9 b4 f1 3d
       0.32694864 0.23071387 -0.3585315 0.11802072
000040 ae 2f 29 bf 76 fe 3d 3e b7 72 8a 3e 84 48 ca bd
       -0.6608838 0.185541 0.27040645 -0.098771125
000050 2e ed 30 bd 9f cb 06 be 26 a3 02 be b7 2e 8e 3e
       -0.043194942 -0.13163613 -0.12757549 0.27770016
000060 ff 73 e5 be 46 3e 81 3e 31 d4 65 3e 74 c2 c1 3e
       -0.4481506 0.25242823 0.22444226 0.37843668
000070 80 4e 43 3f 24 f3 05 3e 5a b8 2c be dc 4e 1e be
       0.76291656 0.13081032 -0.168672 -0.1545977
000080 42 da 11 3e 5f b8 e9 3d 5c 83 63 3d 36 ea 6d 3e
       0.14243415 0.11412119 0.055545196 0.23233876
000090 c3 c8 86 3d 7a fd c1 3d be fa f4 bf e3 f0 50 3e
       0.06581261 0.09472175 -1.913902 0.20404391
0000a0 4b b2 6b 3e 66 da 32 be 63 86 64 be 0f 89 c2 3d
       0.23017232 -0.17466125 -0.2231689 0.09498798
0000b0 14 17 3d 3e 43 16 43 be 62 19 d3 3e 94 ef f3 3d
       0.18465835 -0.19051461 0.41230303 0.1191093
0000c0 d4 21 f8 3d 38 5f b7 3e 7e f3 7b 3e 96 42 7a 3d
       0.12115827 0.35814834 0.24604604 0.061098658
0000d0 c7 c2 a3 be 9a 52 e3 3d 3a 14 66 3d 2d aa 07 3e
       -0.3198454 0.110997394 0.056171633 0.1324851
0000e0 c1 e4 09 bf ed 81 ef be 57 07 c1 bd d5 b9 f5 3b
       -0.53864676 -0.46778813 -0.09425228 0.0074989595
0000f0 3e a2 d4 3e ff 8a 7b 3f e7 4d be 3d e4 1c 11 3e
       0.4153003 0.98258966 0.092922024 0.14171177
000100 eb 23 ab 3e 5d 72 70 be 08 9f 88 3d e7 7e 28 3e
       0.3342584 -0.23481126 0.06670958 0.1645466
000110 74 67 1f 3f e7 d2 e1 3e 6a ed 83 be bd 68 c0 bd
       0.6226723 0.44106218 -0.2576707 -0.09394977
000120 25 b8 15 be d0 cb 2d 3d 58 d0 fd 3c 98 1a a7 3d
       -0.14621027 0.0424307 0.030983135 0.08159369
000130 17 e6 d6 be a1 6e 0d 3f f1 0d cc 3e b0 bc 2b 3e
       -0.4197242 0.5524693 0.39854386 0.16771197
000140 f9 68 1e 3f fb 58 1f be da c3 86 be 1d 9e 70 3e
       0.61878926 -0.15561287 -0.26321298 0.23497815
000150 27 d8 3f 3f 5f 4a 44 be ee 97 6b be 5b a5 85 3f
       0.749392 -0.19168995 -0.23007175 1.0441087
000160 98 29 bf bd 7f 7e 64 3e 7f 97 80 3c b0 93 b2 bc
       -0.09334105 0.2231388 0.015697239 -0.021798939
000170 08 e7 c8 be b9 2e 09 be 94 47 85 3f 10 10 d9 3d
       -0.39238763 -0.1339673 1.0412469 0.10598767
000180 aa 97 6a bd 3c 20 60 be f1 6e 44 3f 24 ef 1a be
       -0.057273544 -0.21887296 0.76731783 -0.15130287
000190 c9 b7 d1 3e 69 1c 17 be 76 fc 1e 3f d2 a8 53 3e
       0.4096053 -0.14756931 0.62103975 0.20669869
0001a0 e6 97 76 bc 64 45 3f 3e 95 ca f6 bd b8 f6 54 be
       -0.015050864 0.18678814 -0.12050358 -0.2079724
0001b0 c7 b9 26 3e 68 7e c9 be 6d b9 0b be 12 25 f8 bd
       0.16281806 -0.39354253 -0.13644953 -0.121164456
0001c0 44 e9 43 bc 7f a2 43 3e 34 24 d7 bd e4 d5 05 bf
       -0.01195747 0.19104956 -0.10504952 -0.52279496
0001d0 01 2f 6b be 49 8d aa be 1a ef 67 3e e7 08 a1 be
       -0.2296715 -0.33310917 0.22649804 -0.31452104
0001e0 7d d5 f7 3c dc ed c0 3e 33 8b 76 bd 96 90 fa be
       0.030253166 0.37681472 -0.060191344 -0.48938435
0001f0 99 41 a3 bd 08 68 9c be f4 ca 89 3e 80 8f 92 3e
       -0.07971496 -0.3054812 0.26912653 0.28625107
000200 3f dc a4 be 0d cd 57 bd 1a 63 b3 3e 29 a4 1e 3f
       -0.32199284 -0.052685786 0.35036546 0.6196924
000210 c3 cc 7a be a4 b6 f3 3d c3 82 f2 3d 0d 87 37 3e
       -0.24492173 0.1190007 0.11841347 0.17922612
000220 6d 60 83 be f8 a5 47 be b8 14 c6 bd ec 20 4c bd
       -0.25659505 -0.19496906 -0.096719205 -0.049836084
000230 2c c0 00 bf d1 32 62 3e 83 64 79 3f 14 01 1f 3f
       -0.5029323 0.22089697 0.97418994 0.6211102
000240 b3 69 9b bd ed 0c b4 be 47 c4 42 be 59 5b 94 be
       -0.0758852 -0.35166112 -0.19020186 -0.28975943
000250 f5 7c 5d bc cb 02 8f bd 1e f3 c3 3d 63 92 9c be
       -0.013518562 -0.069829546 0.09567855 -0.30580434
000260 0b 07 fe bc 49 05 17 3d b3 73 fb 3d 21 49 69 be
       -0.031009218 0.036870275 0.12277927 -0.22781803
000270 e7 e7 55 3d f7 e3 92 be ef 4b ad be 49 1a 35 3e
       0.052223112 -0.28689548 -0.33846995 0.17685808
000280 ea 69 80 bd ac 9f 01 be ca 66 79 bc 57 35 db 3e
       -0.062702015 -0.12658566 -0.015222261 0.42814133
000290 e4 c4 99 bb c7 b9 b2 3e 36 3f 2a be ff 4a c0 3e
       -0.0046926606 0.34907362 -0.16625676 0.37557217
0002a0 b8 fc 51 3f 31 76 07 3f 15 5a 0d 3e 81 72 8d 3e
       0.82026243 0.5291472 0.13803895 0.27626422
0002b0 97 69 81 be 67 a8 5f 3f 28 4c a5 3e 15 d5 96 be
       -0.2527587 0.87366337 0.32284665 -0.29459444
0002c0 ed 06 e1 3d 55 40 a2 be a9 3e 16 bf 3c 60 23 bf
       0.10987649 -0.31689706 -0.5868936 -0.63818717
0002d0 e2 d6 0c 3d e8 a1 85 3d d5 e1 aa 3d 6e a7 cc 3d
       0.034384616 0.06525022 0.08343855 0.09992872
0002e0 8d 56 be 3e 20 6e a9 3e 4f 8b 95 3d 1a 4e 0f 3e
       0.37175408 0.3309183 0.07301962 0.13994637
0002f0 36 21 74 bc 7a 8a 1e 3e c9 b8 24 3f 43 5f 1f 3f
       -0.014900496 0.15482512 0.6434446 0.6225473
000300 b1 b7 4f bd 36 61 21 be 03 e1 1e be 50 f2 32 bf
       -0.05071229 -0.1575974 -0.15515523 -0.6990099
000310 6c 27 72 3d 34 67 45 3d 3a 2b 53 be 1a b5 f3 bc
       0.059119627 0.048194125 -0.20621958 -0.029749442
000320 04 1a 56 be fa e2 0a 39 9d 44 57 3e b4 a5 ad bd
       -0.20908362 0.00013245261 0.21022268 -0.08478871
000330 0e f4 c9 be 74 c7 21 3e 2d 69 57 3e 22 5a e2 bd
       -0.3944401 0.15798742 0.21036215 -0.11052348
000340 72 43 c0 be 44 e4 f8 3e ad 5a 6f be fa 1d 4b be
       -0.37551457 0.48611653 -0.23374434 -0.19835654
000350 1b 31 da be 7e 43 4e be 91 9e 55 bd d1 52 00 bf
       -0.4261559 -0.20142934 -0.052153174 -0.5012637
000360 e1 8f 65 3e 0f 59 2a bd 5f d0 a3 3e b2 20 3d 3d
       0.22418167 -0.04158884 0.31994912 0.04617376
000370 2a 0b 09 bf 31 cd f6 bd 54 c5 4a 3e b5 7c 58 3e
       -0.5353266 -0.12050856 0.19801837 0.21141322
000380 ff 9e 8b 3d a3 12 1a 3e 08 ca 95 3e b9 ce ef 3e
       0.068174355 0.15046172 0.292557 0.46837404
000390 38 8b db 3d f2 02 b2 3e f1 61 26 bf 83 cf a2 3e
       0.10719913 0.34767872 -0.64993197 0.31798944
0003a0 28 67 c5 3e a2 ed 09 3e 75 04 9f 3d e1 1c 26 3f
       0.38555264 0.13469556 0.07764522 0.64887816
0003b0 bd 49 e1 be bc 24 d2 3e 47 8f 1c 3f 0d 98 aa bd
       -0.4400157 0.4104365 0.61156124 -0.08329783
0003c0 2d 3c fc bd 56 29 de 3e 88 dc 73 be 01 e4 91 bd
       -0.12316165 0.43390912 -0.23814595 -0.071235664
0003d0 84 91 bb be 67 ef fd be 72 64 d5 3c de 0b 00 3f
       -0.36634457 -0.49596712 0.026048873 0.5001811
0003e0 4c bb 04 3d 25 57 2a 3f 23 2f 64 be 1f 7b 17 3f
       0.032405183 0.6653922 -0.22283606 0.5917224
0003f0 5b 61 cb 3d 2b 64 dd 3e c8 5c 57 be 03 df 76 be
       0.099306785 0.43240485 -0.21031487 -0.2410851

network_body._body_endoder.seq_layers.2.bias f4 [128]
000000 85 c1 13 3c 75 f2 a9 3d 76 e8 9b bd 09 c6 b0 bd
       0.009018307 0.08298198 -0.07612698 -0.08631522
000010 25 a6 b5 3d b6 bd e5 3d e3 bd 3e 3d c0 2f e4 3d
       0.0886958 0.11217825 0.04656781 0.1114192
000020 c0 8a 38 3d b3 b2 da 3d 70 e8 31 bd 0e 04 e7 3d
       0.045054197 0.106786154 -0.04343456 0.1128007
000030 f5 50 ff 3d fe 0f 5a 3d ec 33 4c 3d a4 20 71 3d
       0.12466613 0.053237908 0.049854204 0.05886902
000040 2c 0e 08 3e 07 b8 a6 3d 64 ad 3b 3d c9 ba 2c 3e
       0.13286656 0.08140569 0.045819655 0.16868128
000050 d7 d4 40 3b 0f f6 20 3e 57 35 77 3d 77 2d b4 3d
       0.0029423737 0.15718864 0.060353603 0.08797734
000060 6c d3 3c 3e e7 34 d7 3d d1 f5 76 3d 31 ed e4 3d
       0.18440026 0.10508137 0.060293023 0.11178053
000070 30 36 e4 3d 57 f0 5b 3d 69 20 f4 3d e0 6c 1b 3d
       0.11143148 0.053696003 0.11920244 0.03794563
000080 f1 d8 e0 3b 6b e9 c3 bd 32 1b a1 bc b5 c4 9a 3d
       0.006861799 -0.09566005 -0.019666288 0.0755705
000090 e8 13 c2 3d 36 1e 18 3e f6 0b e1 bd bd de 1a 3d
       0.09476453 0.14855275 -0.109886095 0.037810076
0000a0 bb d4 b9 3d a7 b4 07 3d 0d 1b 9f 3c 85 13 e6 3c
       0.09073778 0.033131268 0.019422079 0.02808548
0000b0 78 c1 d2 3d e9 a8 b5 3d 93 26 e5 bd 75 96 05 3e
       0.102908075 0.08870108 -0.11188998 0.13045676
0000c0 18 7f dd bd 0d bb 78 3c fc 0f ad 3d f3 f2 f9 3d
       -0.10815257 0.015181315 0.084503144 0.12204542
0000d0 72 93 f2 3c 1e 79 d9 3d 0a 60 c6 3d 1c d1 0b 3e
       0.029611323 0.106188044 0.09686287 0.13653988
0000e0 49 0f 0b 3d 1a f8 73 3d 3a dc aa bd bb b6 03 3d
       0.033950124 0.05956278 -0.08342786 0.032156687
0000f0 0b 21 01 3e 32 3a e4 3c 95 f9 18 3e 4f 0b 22 3d
       0.12610261 0.027859781 0.14938958 0.039561566
000100 59 84 9a 3d e5 d4 ef 3d f9 42 f3 3d b8 09 fa 3d
       0.075447746 0.11710528 0.118780084 0.12208885
000110 54 a4 86 bd f4 ab c1 bd f3 66 92 bd b7 27 c4 bd
       -0.06574312 -0.094566256 -0.07148542 -0.095778875
000120 68 b7 62 bd 84 ae 13 3e 88 bd 41 3c 57 65 b7 3d
       -0.05535069 0.14422041 0.011824973 0.08954876
000130 5f dc 99 3d 54 3c b0 3d b8 41 b5 bd 77 41 ef 3d
       0.075127356 0.08605257 -0.088504255 0.11682408
000140 a8 32 d1 bd f3 31 94 3c 4d ef 65 3e b3 1b 84 3d
       -0.1021474 0.018090224 0.22454567 0.06450596
000150 6d a7 fc bd 15 29 c9 3d 8c 08 bc 3d fe eb fb 3d
       -0.123366214 0.09822289 0.09181318 0.12300871
000160 2c 99 a2 bd 81 04 e6 3d 13 1f b5 bd 09 89 e6 3d
       -0.079393715 0.11231328 -0.088438176 0.11256606
000170 75 6c 97 bd b2 55 16 3e 8f 29 dc 3d 38 b8 1a 3e
       -0.073937334 0.14681128 0.10750114 0.15109336
000180 dc 4a f1 bd 71 f9 be bd 9f 9a 2d 3e c1 46 fa bc
       -0.117818564 -0.09324921 0.16953515 -0.030551316
000190 5c ec d3 3d 1f 35 78 3d ff fa 0f 3e 75 9b 13 3d
       0.10347816 0.060597535 0.14060591 0.036036927
0001a0 35 57 1a 3e aa f4 f6 3d 70 a8 d5 bd ef ad 86 3d
       0.1507233 0.12058385 -0.104325175 0.06576144
0001b0 4b 18 59 3d e0 05 40 3d bb ee 44 3d bf 55 0b be
       0.053001683 0.046880603 0.048079234 -0.13606928
0001c0 6a 55 cc 3c fc fd 76 3e c0 d7 27 3e 7a 23 b1 3d
       0.024943072 0.24120325 0.16390896 0.08649345
0001d0 ed d6 12 3e 0f 66 b3 3d 82 77 66 3d 0d 31 b3 3d
       0.143398 0.087597005 0.056266315 0.0874959
0001e0 97 53 cb bd 8d 79 a2 3c bd b8 1a 3e 0d c4 03 bd
       -0.09928053 0.01983335 0.15109535 -0.03216939
0001f0 19 5f cb bd 96 68 0a 3e 44 53 8a 3d 53 4f 01 3c
       -0.09930248 0.13516459 0.06754163 0.0078924475

network_body._body_endoder.seq_layers.2.weight f4 [128, 128]
000000 5c 81 31 3d 71 79 ae bd 0e 54 35 be bf 11 30 bd
       0.043336257 -0.08519257 -0.17707846 -0.042985674
000010 a1 21 82 3e 03 0d 97 be ca 2e 95 bd db 22 2f be
       0.25416282 -0.29502115 -0.07284315 -0.1710314
000020 74 32 9c 3d ad c2 1b 3d 3d 39 56 3d d5 03 0b be
       0.07626811 0.038027454 0.05230068 -0.1357568
000030 73 dd 35 3e fa 69 14 bd e7 df cb bd d8 85 fb bc
       0.17760257 -0.03623388 -0.09954815 -0.03070347
000040 8a 33 cf bd f6 cc 5c 3d ea 28 b6 bd 9b f2 f2 3d
       -0.10117252 0.053906403 -0.088945225 0.118626796
000050 34 d9 ae 3b d3 4d f8 3d 5b de e6 bc 9c 7c cc 3a
       0.005335951 0.12124219 -0.0281822 0.0015601101
000060 a4 10 bb 3c 66 ee cb 3d 17 18 2b be 31 e5 61 3d
       0.022835083 0.0995758 -0.16708408 0.055150215
000070 bb a6 fe 3c a6 d2 ac bd f4 f1 81 3e 8a 33 2b 3d
       0.031085363 -0.084386155 0.25379908 0.0417972
000080 cc ff 83 3c 1a 20 6a be 5e 27 26 be 88 07 eb 3b
       0.016113184 -0.22863808 -0.16225955 0.0071725287
000090 2b 67 09 be 8f 65 06 3e 05 9a 86 bc 37 1e ab 3d
       -0.13418262 0.13124679 -0.016430864 0.083553724
0000a0 5a 10 20 3d 24 3a ae bd ee 4c 84 bc e9 30 62 bc
       0.039078094 -0.08507183 -0.016149964 -0.013805606
0000b0 df 65 e9 bc 1e 5b 94 be be 3f c4 3d aa 14 6b 3d
       -0.028490959 -0.28975767 0.0958247 0.057392754
0000c0 88 e4 ef 3c 57 90 13 bd 06 a0 89 3d ca 6e 25 bd
       0.029283777 -0.036026325 0.06719975 -0.04038886
0000d0 bd 6f 92 3d 62 74 96 3d ac fb 1d 3e 67 b5 1a be
       0.07150219 0.07346417 0.15428036 -0.15108262
0000e0 02 f3 6b 3d 19 e0 6f bb f3 a3 3c bd 65 1f 01 be
       0.057604797 -0.0036602078 -0.04605479 -0.12609632
0000f0 3d b4 16 3e 83 4d 98 bd 7d 32 1d be 0a 45 9f 3d
       0.14717193 -0.07436659 -0.15351291 0.0777684
000100 60 a0 c2 3c b0 ac da bd 6e 60 a0 be 82 b0 2a be
       0.023758113 -0.10677469 -0.3132357 -0.16668895
000110 69 64 6b be 4b 83 67 bd ab f5 6a bd 27 3b b3 bd
       -0.22987522 -0.056521695 -0.057363193 -0.08751517
000120 ef 5f 2c bd 0f b3 7e bd 9e a9 14 bd 0c 5d a6 3c
       -0.042083677 -0.062182482 -0.036294572 0.02030804
000130 0e f8 35 bd 86 be 67 3d ac bc f1 bc 57 b5 14 3e
       -0.044426017 0.05657818 -0.029508911 0.145223
000140 cc 9d 1f be 01 69 91 bd 44 8a 67 bd e7 d1 a7 bc
       -0.15587538 -0.07100106 -0.056528345 -0.020485831
000150 c8 0d 92 bd e5 62 e4 3c d8 0f 27 be b4 f7 ed bd
       -0.07131535 0.027879188 -0.16314638 -0.11619511
000160 c3 a9 4e 3d d0 01 4e 3d f5 5a 47 3e ed c7 d0 3d
       0.050454866 0.050294697 0.19468291 0.10194383
000170 11 d4 06 3e 9a 3d fa bd ba 09 49 3d 00 be c8 bd
       0.13166834 -0.12218781 0.04908154 -0.098018646
000180 2a 2d eb 3d 7c c6 89 3c e7 43 59 3d 64 ed 1f bd
       0.11483224 0.016818278 0.053043272 -0.039044753
000190 39 bb 8f 3e 1c 9f bd bb a4 8e bd 3d 5d e8 1a bd
       0.28072527 -0.0057867896 0.09255722 -0.037819255
0001a0 e3 e3 4e bd b6 e5 f2 3d 5b e4 41 3d e7 22 85 3d
       -0.0505103 0.1186022 0.047336917 0.06500798
0001b0 73 04 fd 3d 77 11 b0 bc ae 72 82 3d cb 8e b4 bd
       0.12354364 -0.021492703 0.0636953 -0.08816298
0001c0 b4 da 2c be 88 1a 81 bd 83 8c cf bd 95 06 1d be
       -0.16880304 -0.063038886 -0.10134222 -0.15334542
0001d0 38 38 9f bc 7e 01 a5 3d 2d 82 d4 3d 7f 4b 2e be
       -0.019435987 0.08056925 0.103763916 -0.17020987
0001e0 13 f0 0d 3e 2f ac 01 ba d9 64 1f bd 0b 0d d5 bd
       0.13861112 -0.0004946617 -0.038914535 -0.104028784
0001f0 56 84 4d 3d fb 64 0a 3e 7c 76 13 be e5 fd 27 be
       0.050175034 0.13515083 -0.14400667 -0.16405447
000200 14 a9 2d bd 7b 73 d6 3d 70 87 17 be 67 30 77 3d
       -0.042397574 0.10471245 -0.14797759 0.060348894
000210 35 63 b5 bc f9 e3 0f be 53 99 9e be 8c b9 25 3d
       -0.022142032 -0.14051808 -0.30976352 0.040460154
000220 35 da 0a be 82 82 0e 3e 65 27 8b bd 59 c2 56 be
       -0.13559802 0.13916972 -0.06794623 -0.20972575
000230 1c 6a ef bd 2f 22 97 3d 76 ec 91 bd 58 13 bc 3d
       -0.11690161 0.07379567 -0.071251795 0.09183377
000240 92 59 79 bd d5 f3 93 3d 88 a9 6b 3d 75 af 82 bc
       -0.060876437 0.07224242 0.057534724 -0.015952805
000250 8d 72 d8 bc b1 18 2e 3e f4 21 28 bd bc 4e ae bd
       -0.02642181 0.17001607 -0.041048005 -0.08511111
000260 12 dc 02 bd d1 ab ce bd 3b b3 b9 bd 10 8d 12 bd
       -0.031948157 -0.10091365 -0.090673886 -0.03577906
000270 40 ca a2 bd b4 29 bd bc ec f2 b8 bd 65 7e c3 bd
       -0.079487324 -0.023091175 -0.09030709 -0.09545592
000280 5d ff 08 3e 80 a2 80 bd 8d 37 b9 bd ed 78 66 3d
       0.13378663 -0.062809944 -0.090437986 0.056267668
000290 b6 75 14 be 7a 70 92 be eb 0c 86 be f9 29 2e be
       -0.14498028 -0.28601438 -0.2618173 -0.17008199
0002a0 41 db 00 3d 1e ee cc bd d3 40 d2 bd bb 16 6b bc
       0.031459097 -0.10006355 -0.102662705 -0.014348681
0002b0 75 43 8d bc 2e 0a d7 3a 1b 93 f0 3c 3c 50 6d 3c
       -0.01724408 0.0016406232 0.02936702 0.014484461
0002c0 33 65 be bd c8 87 44 3d 68 d3 21 be cf e2 d3 3d
       -0.09296646 0.047981054 -0.15803301 0.10345995
0002d0 89 89 89 be f9 9c fb 3d c7 fe 1e 3d 55 0c f5 bc
       -0.26862743 0.122857995 0.038817193 -0.029913107
0002e0 92 5a 91 38 fc 95 40 3d e2 e6 69 3c 32 a6 c3 3d
       6.931009e-05 0.047018036 0.014276238 0.095531836
0002f0 6a e5 07 3e ca a4 f0 bd 3f 95 1b 3e 74 6a bd 3d
       0.13271108 -0.11750181 0.15193652 0.0924882
000300 35 b7 cb 3d 1e 3d 5f bd 08 10 44 be fc ff 5d be
       0.09947053 -0.054501645 -0.1914674 -0.21679682
000310 21 07 15 be c0 88 4b be c9 fa 6a bd 70 f7 5a bb
       -0.145535 -0.19876385 -0.057368074 -0.0033411644
000320 c7 3b 80 bd 26 c4 a8 3e df 58 4f be 7a 53 e3 bd
       -0.062614016 0.3296215 -0.20248745 -0.11099906
000330 e5 d7 21 be 3b 59 74 3c 21 ba 38 bd f5 df 89 be
       -0.15805013 0.014913852 -0.04509938 -0.26928678
000340 77 4e e8 bd ca aa 86 bd df a3 3b 3e 27 fd e7 3d
       -0.11343091 -0.06575544 0.1832423 0.11327582
000350 2a 5e 36 3e e6 c1 49 3d a9 35 b2 bc 32 5c b5 bd
       0.17809358 0.04925718 -0.021754103 -0.088554755
000360 50 2e b4 bd 86 89 a0 bd 02 06 f2 bd 5b 1f 08 be
       -0.08797896 -0.078387305 -0.11817552 -0.13293211
000370 de 4a 67 bd 51 f0 b7 3c 2b 43 06 be e8 8a 4f be
       -0.056467883 0.022453459 -0.1311156 -0.20267832
000380 e5 8d 90 bd 42 5c 31 bd 08 c4 ad bd 1f 0d 26 bb
       -0.07058314 -0.043300875 -0.084846556 -0.002533741
000390 b0 f7 44 be 35 dc c1 bc 61 9b 97 bc 3d 01 1f be
       -0.1923511 -0.023664573 -0.018506708 -0.15527816
0003a0 45 70 d4 3c 7a c8 0d bb d6 42 68 be 12 8d 28 3e
       0.02593244 -0.0021634386 -0.22681746 0.16460064
0003b0 bf 39 68 3c 04 63 91 3c bf 06 31 be 36 9a 3a be
       0.014173924 0.01774741 -0.1728773 -0.1822289
0003c0 9f bb 42 3e 8f 4e 6d 3d b5 99 99 3d 98 51 01 be
       0.19016884 0.057936247 0.075000204 -0.12628782
0003d0 28 b9 83 3d 8d 01 14 3e 79 c0 68 bd aa 4a 53 be
       0.064318 0.14453717 -0.05682418 -0.20633951
0003e0 c2 b1 9a 3d cc 39 1a bd 02 f4 ee bd 59 d5 ed bd
       0.07553436 -0.037652776 -0.116676345 -0.116129585
0003f0 4b 3b d2 3d d6 80 e9 3d 1a 6b c2 bd 7a 56 09 3d
       0.102652155 0.11401527 -0.09493084 0.033529736
